TD3_AntBulletEnv-v0_0_actor.pth (torch_old, 538235 bytes, 6 tensors)

layer_1.weight f4 [400, 28]
000000 d5 ce 98 3e 88 8b 19 bf 89 70 11 bf 8d 67 02 c0
       0.298453 -0.5997853 -0.5681234 -2.0375702
000010 ce c6 24 3d e2 d0 db 3e d8 6e e1 bd 18 0d a3 3e
       0.040228657 0.42932802 -0.1100747 0.31845927
000020 5c 37 e4 3d 0c ea b8 3d 8b 3c db 3f 4b d4 90 be
       0.111433715 0.09029016 1.7127851 -0.28286967
000030 cf 57 cc 3d e8 0b 88 3e af e7 ec 3e 84 39 76 3e
       0.09977686 0.26571584 0.4627051 0.24045378
000040 95 7d 2a 3f 2e a0 1c 3e 1d 97 7e 3d 18 57 1c be
       0.6659787 0.15295479 0.06215583 -0.15267599
000050 16 eb c8 be e7 04 b7 3e 39 52 14 3f 39 a2 b4 be
       -0.39241856 0.35745928 0.5793796 -0.35280016
000060 d1 99 28 3f e2 f7 20 bf 29 f2 1a bf 61 ba cf bd
       0.65859705 -0.6287824 -0.6052576 -0.10142971
000070 26 82 ae bd f5 f8 10 c0 19 4b 12 bf 30 76 f2 bf
       -0.085209176 -2.2651951 -0.5714584 -1.8942318
000080 8a 4c cd be d2 38 b7 3f ed a3 9e bf ba 74 65 bf
       -0.40097457 1.4314215 -1.2393776 -0.89631236
000090 e0 c5 90 bf c6 0c 57 be b2 92 0b bf 8e 6c f0 be
       -1.1310387 -0.21000966 -0.54520714 -0.4695782
0000a0 a2 72 5b 3f 34 88 22 3e d9 b9 85 3d 8e 89 40 3f
       0.8572179 0.1587227 0.06529588 0.7520989
0000b0 5b e0 fe 3d 89 0c be be f6 78 98 3c c1 f0 91 3f
       0.12445136 -0.3711894 0.018612366 1.1401597
0000c0 a6 30 26 bf c8 fa 17 bc 05 8f 8d 3e 69 84 22 3d
       -0.6491798 -0.0092760995 0.27648178 0.039677057
0000d0 1e f1 2e 3e f9 31 3a 3e 2f e5 26 be 76 6d 81 3e
       0.17084166 0.18183126 -0.16298364 0.25278825
0000e0 2d 68 35 bd 2b c4 26 3f 38 86 47 3d 76 f9 b0 3e
       -0.044288803 0.6514308 0.048711985 0.34565324
0000f0 32 ac 75 bd 41 96 c2 3f 41 27 89 be b7 de 5a bf
       -0.05997867 1.5202104 -0.2678776 -0.85496086
000100 c7 7b 4a 3a 7d c7 d4 bf 76 5e ce be f5 c1 00 3f
       0.0007724133 -1.6623379 -0.40306443 0.50295955
000110 b1 6c a4 3e b7 1e ef 3d 5f a9 c9 bd 49 a8 50 bc
       0.32114175 0.1167578 -0.09846758 -0.012735435
000120 7b 5a 2b 3d bd ca d0 3e 08 fe 19 bd 4b 22 02 3e
       0.041834336 0.40779677 -0.03759578 0.12708394
000130 dd 96 21 be 65 27 73 3e 8f dd 84 3e 31 3b 90 bf
       -0.15780206 0.23745497 0.25950286 -1.1268064
000140 32 9b 60 bf ae e2 87 3e a2 73 d6 be 2f 04 10 be
       -0.8773681 0.2654013 -0.41885096 -0.14064096
000150 e7 60 09 3e e3 75 21 bf 4e fe dc be c8 78 b6 bf
       0.13415872 -0.63070506 -0.4316277 -1.425561
000160 1e 57 af 3e f3 7b 00 3f e3 42 e1 3f 64 ee 83 3f
       0.34246153 0.5018913 1.7598537 1.0307126
000170 b7 b0 10 3f f1 87 d1 3e cd 38 df 3d b6 34 e4 be
       0.56519645 0.40924028 0.10899506 -0.44571465
000180 ab d5 37 ba 66 cf 86 be aa 58 3a bf 79 da 1a be
       -0.0007012735 -0.26330107 -0.7279154 -0.15122403
000190 f0 51 62 be 75 e8 2a 3d 48 7f 3b 3f 04 df ad 3e
       -0.22101569 0.041725595 0.7324109 0.3395921
0001a0 41 ed de be 70 d1 20 bf a8 ec 6e bf dc 26 4f 3f
       -0.43540385 -0.62819576 -0.9332986 0.8091867
0001b0 c9 64 be bd cb d1 4b 3e ec 96 77 be e3 84 4f 3d
       -0.09296567 0.19904248 -0.24178666 0.05066384
0001c0 54 30 0b bf 83 d6 89 3e 4d 2f 14 bf 71 44 24 bf
       -0.5437062 0.26921472 -0.57884675 -0.64166933
0001d0 d5 df d2 bf fa 1a a0 3e ae 6f 97 3f d6 45 13 be
       -1.6474558 0.3127058 1.1830957 -0.14382109
0001e0 be 6a f8 3e 13 a3 0c 3f 80 e2 76 bd f8 6c f5 bd
       0.48518938 0.5493633 -0.0602746 -0.11983675
0001f0 50 87 05 bf ad 2c f6 3d 2e 30 61 3e 77 7a 17 bc
       -0.52159595 0.1202024 0.21991035 -0.0092455065
000200 ba 5f 46 bf 42 bc 27 bf a4 9c 7d 3f ac 51 ba 3e
       -0.7748982 -0.65521634 0.9906714 0.36390436
000210 fc d2 b3 3e 20 ac 44 be 49 02 24 bf 9a b3 d3 3e
       0.35121906 -0.19206285 -0.64065987 0.41347963
000220 c3 3d 01 3d 43 ca ca be d7 bb e4 bd 72 e8 28 bd
       0.03155304 -0.39607438 -0.1116864 -0.041237302
000230 63 1e ec 3e c1 1c fc 3f cd 94 b2 bf 60 7d 0d bf
       0.46116933 1.9696275 -1.395166 -0.5526943
000240 b9 c2 ab 3c af 52 86 3f 07 5b a8 3e b9 eb b6 be
       0.020966874 1.0493983 0.32881948 -0.35726717
000250 fe 10 5c bf b0 c3 51 3d 8e d5 32 3e f5 70 2a be
       -0.8596343 0.051212013 0.17464277 -0.16644652
000260 b1 72 ba be 09 b0 6b 3f f8 88 2e 3f 41 85 57 3e
       -0.36415628 0.92065483 0.6817775 0.21046926
000270 17 a9 7b bc 23 37 2d bf 74 c9 d8 3e f3 ca 7c 3f
       -0.015360138 -0.67662257 0.42341197 0.98747176
000280 12 d8 34 3f e9 e4 01 3f 98 58 2b 3e 20 12 a0 be
       0.706422 0.50739914 0.16733015 -0.31263828
000290 1a ea 21 3e 14 44 04 3d 52 ba 26 be 78 7e b3 3e
       0.15811959 0.032291487 -0.16282013 0.35057425
0002a0 be 8b dd ba 7e a5 4e bf ab 64 bc 3d 18 81 9b be
       -0.0016902608 -0.8072127 0.091988884 -0.30371928
0002b0 50 c0 69 bf ab c2 b2 be ac a2 96 be 96 60 d7 3f
       -0.9130907 -0.34914145 -0.29420984 1.6826351
0002c0 38 f4 91 bd 40 2d 68 3f 1d 13 5e bc 49 c3 8b 3e
       -0.07126659 0.90694046 -0.013554362 0.27297428
0002d0 22 3e 9a be da b3 82 be 62 89 ec 3e 93 9a 8d ba
       -0.3012553 -0.2552784 0.46198565 -0.0010803513
0002e0 69 1d 94 bd dc e3 e1 be a2 12 46 3e 22 e0 df 3e
       -0.07232172 -0.44119155 0.19343045 0.43725687
0002f0 57 7d 4c bf c1 d2 c7 3f ac b7 89 bd aa 32 ae be
       -0.79878753 1.5611192 -0.06724486 -0.3402303
000300 12 8a 9e bf 29 77 a9 bd d2 d9 a0 bf 98 90 f4 3d
       -1.2385886 -0.08274681 -1.2566473 0.119416416
000310 ec 17 82 3e b0 f6 ad 3f f7 c2 47 bf dc 3b 99 3f
       0.25408876 1.3590908 -0.7803187 1.1971393
000320 02 d0 46 bf c7 5b ef 3f af bb 83 bf 0e 24 87 be
       -0.77661145 1.8699883 -1.0291651 -0.26394695
000330 54 86 e5 3d 01 88 69 3d ea e6 88 be 7a 6a 98 3d
       0.11207262 0.05701447 -0.26738673 0.07442184
000340 9c aa 90 be 06 0e 34 3f 3a 9d 90 3e 4d d7 5a 3c
       -0.28255165 0.703339 0.28244954 0.013356996
000350 20 34 08 be 28 92 f2 be 99 98 67 3e 26 05 05 bf
       -0.13301134 -0.47377133 0.22616805 -0.5196098
000360 2d 6a b1 3d 40 d3 d7 3e 5b 84 47 3f c0 de 4d 3f
       0.086628295 0.42153358 0.77936333 0.80418015
000370 aa 43 7f be ba fa 9e 3e d7 99 2d 3e 49 33 04 3f
       -0.24928156 0.31050664 0.16953216 0.51640755
000380 53 f6 df be 22 c3 52 3f 21 42 6a be a3 8e 60 bf
       -0.43742618 0.82329 -0.22876789 -0.87717646
000390 fe 8c 46 bf f0 38 f7 3d 6f eb 47 bf 48 f3 5a be
       -0.77558887 0.12071407 -0.7809362 -0.21381867
0003a0 54 06 83 bf a5 28 79 be eb 10 81 3e f4 50 c0 bf
       -1.0236306 -0.24331911 0.2520822 -1.5024705
0003b0 d9 42 d1 3e 4c 80 a0 bd bb 7d b7 bd e2 ef 84 3e
       0.40871313 -0.07836971 -0.08959528 0.25964266
0003c0 a5 3e 3e be 73 8b 32 3e 8d 13 a1 bc dd 44 69 3f
       -0.18578584 0.17436008 -0.019662643 0.911207
0003d0 bd c7 6b be 4e dd b0 3c 43 c5 80 3d b2 86 a4 be
       -0.23025413 0.021589901 0.06287625 -0.32134014
0003e0 28 59 30 3f b3 62 9e 3e 30 b3 e4 bf a0 7e 16 bf
       0.6888604 0.30934677 -1.7867184 -0.58786964
0003f0 e7 64 38 3f cc 4c 95 bf 7f a1 04 bf 08 58 aa bf
       0.72028965 -1.1664062 -0.51808923 -1.3308115

layer_1.bias f4 [400]
000000 d0 4f 06 3d 2e 2d 15 bf 35 1c 9e 3e e3 ea 04 bf
       0.03279096 -0.58272064 0.30880895 -0.5192091
000010 d5 e3 39 bf 63 16 b6 be 96 25 31 be 6a 2d cf be
       -0.7261327 -0.35563955 -0.17299494 -0.40464336
000020 89 5c 8a bd 73 2e b8 be e5 b6 b9 be b1 9f b9 bc
       -0.06755931 -0.35972938 -0.3627235 -0.022659155
000030 ab 19 7c be ff 3e 29 bf 5c 93 92 ba aa 0d 47 be
       -0.24619167 -0.6611175 -0.0011182833 -0.19438806
000040 77 8b a1 be aa e4 a1 bd 65 4c 26 bf c9 c5 0f bf
       -0.31551716 -0.07904942 -0.6496032 -0.5616117
000050 a5 20 df be 95 75 e2 be 97 6c d4 be fd 46 77 be
       -0.43579593 -0.44230333 -0.41489097 -0.24148174
000060 0c 68 ee bd e9 fa 1f bf 23 1f 29 bf f4 78 a2 be
       -0.11640939 -0.62492234 -0.66063136 -0.31732905
000070 0d 77 ab be 79 73 2f bf 08 2a ae be f0 4b 44 bf
       -0.33489266 -0.6853557 -0.34016442 -0.7667837
000080 21 31 5c bf 7f 3e 6e be ae f0 20 bf e4 da 14 be
       -0.86012465 -0.23266028 -0.6286725 -0.14536625
000090 80 08 06 bc 08 a3 08 bf bd d4 c4 be d7 45 20 3d
       -0.0081807375 -0.53373766 -0.38443556 0.039129104
0000a0 13 14 a4 be cd fb 15 bd 06 55 bc be 29 c0 87 be
       -0.32046565 -0.03661709 -0.36783618 -0.26513794
0000b0 7c c7 2b bf 1c 35 8b be 56 fc 65 bf 62 f3 b5 be
       -0.67101264 -0.27188957 -0.8983816 -0.3553725
0000c0 d2 52 07 bf 3b 2d a1 be 3e 1d d1 be 8c 8b 1f be
       -0.5286075 -0.3147982 -0.40842623 -0.15580577
0000d0 93 08 85 be e7 65 f1 be f2 08 91 bd 7e e1 5a 3e
       -0.25983104 -0.47148058 -0.07081784 0.21375081
0000e0 50 18 ba be 3f 20 2e be de 0d c9 be 53 c4 32 be
       -0.36346674 -0.17004488 -0.39268392 -0.17457704
0000f0 08 ab 04 bf b8 b5 22 bf 58 e5 ba be b8 c9 24 bf
       -0.5182347 -0.6355853 -0.365031 -0.643703
000100 03 6b 83 be 79 6f 76 be ce 0f 0d bf 85 75 69 be
       -0.2566758 -0.24065961 -0.5510224 -0.22798736
000110 1b 43 ea bc 28 32 a4 be 7f 5e 61 3d 91 c2 86 3e
       -0.028596452 -0.32069516 0.05502176 0.26320317
000120 70 10 77 be b2 bd 27 bf 13 33 76 be 33 14 7e be
       -0.24127364 -0.6552383 -0.24042921 -0.24812393
000130 7a 7e 9f be e7 6b 10 bf 8c 9f fd be 01 db d6 be
       -0.3115118 -0.56414646 -0.49535787 -0.41963962
000140 ca 00 0c bf 99 6a bd 3e 4c 3f 0f bf bc 48 8b be
       -0.54688704 0.3699539 -0.5595596 -0.2720393
000150 12 e3 31 bf ab 77 86 be 09 c4 1f bf 40 9a 1d bf
       -0.69487107 -0.26263174 -0.624085 -0.6156349
000160 0b a1 d4 be 12 fd eb 3d 00 ae 11 bf b7 66 f4 be
       -0.41529116 0.11522879 -0.5690613 -0.47734615
000170 c4 6b da be 83 05 9a be 32 6c 4c be ce 9a 74 be
       -0.42660344 -0.3008233 -0.19963148 -0.23887178
000180 ac cf 45 be ce 61 17 bf 11 ec 0f bf 70 61 e7 bd
       -0.19317502 -0.59133613 -0.56219584 -0.112978816
000190 95 de 3b bf 49 c4 d8 bd 63 80 8a be 43 01 65 be
       -0.7338651 -0.105843134 -0.27051076 -0.22363763
0001a0 4a b8 ef be fb ea 31 bf cb 97 2e 3d a9 fe 0a bf
       -0.4682029 -0.69499177 0.04262523 -0.5429483
0001b0 d3 f1 46 bf 52 a4 ca be 67 70 c6 be 55 bc 94 be
       -0.77712744 -0.3957849 -0.3875763 -0.29049936
0001c0 2c 40 f2 be 3c bd 54 be e5 81 d4 be b9 bf 85 3d
       -0.47314584 -0.20775312 -0.41505352 0.06530709
0001d0 72 c2 9a be bb 59 31 bf 9a 60 c8 be 68 1a 58 bf
       -0.30226475 -0.6927754 -0.391362 -0.8441529
0001e0 48 65 e7 bd bd e2 97 bd cb 68 31 bf a9 95 17 be
       -0.11298615 -0.07416294 -0.69300526 -0.14803185
0001f0 1b 50 29 be 68 15 5c be 2a 0e 81 be 43 4b a7 be
       -0.16534464 -0.21492541 -0.2520612 -0.32674608
000200 f5 8b 12 3e ee dd 0f bf 24 44 c4 be e3 8f 98 be
       0.14311202 -0.5619801 -0.38333237 -0.29797277
000210 68 c7 13 bf 9b e4 ac be 6f 20 61 be 27 ea 86 bd
       -0.57726145 -0.33768162 -0.21985029 -0.0658763
000220 3e 12 8e be c5 4d 81 be b9 c6 82 be ea 98 91 be
       -0.27748293 -0.25254646 -0.25542238 -0.28436977
000230 e9 ff 54 bf 74 6e 29 3f 75 fc 79 be 6e af 58 be
       -0.8320299 0.66184163 -0.24412711 -0.21160671
000240 c3 d4 68 be f1 2a 4a be f7 c1 4e be e6 46 a5 be
       -0.22737412 -0.19742943 -0.20191179 -0.32280654
000250 e5 d4 78 be 81 22 e3 be fd 3a 74 be 75 31 33 3d
       -0.24299963 -0.44362262 -0.23850627 0.043748338
000260 bd db d9 be f9 12 33 be 65 2f b1 be f8 c7 fb be
       -0.4255046 -0.17487706 -0.34606472 -0.49176002
000270 57 e5 e1 be 88 31 88 bd 32 a7 c1 bd d0 3e 0a bf
       -0.44120285 -0.06650072 -0.09455718 -0.54002094
000280 6b 47 12 be 35 0e fa be 42 02 c3 3d bb 37 18 bf
       -0.14285056 -0.48838964 0.09521915 -0.5946004
000290 cb 5e dd be 8d a6 3c bf a9 d8 00 bf 0a 0d e1 bd
       -0.43236384 -0.73691636 -0.503306 -0.10988815
0002a0 61 b6 83 be a5 ee 22 3f 71 9d 97 bd a0 4d 32 bd
       -0.25725082 0.6364539 -0.074030764 -0.04353106
0002b0 3e fe 01 bf e8 ee 15 bf b3 fd 41 bf 64 d5 2b be
       -0.5077857 -0.58567667 -0.7577774 -0.16780621
0002c0 0c 57 43 3c 21 62 b9 be 76 c2 83 3e b6 ff 3f be
       0.011922609 -0.3620768 0.257343 -0.1874989
0002d0 cc 8d e7 be f4 f7 c7 be 11 f8 d7 be 08 f4 ee bd
       -0.4522537 -0.3905636 -0.42181447 -0.11667639
0002e0 07 c6 03 bf c2 93 00 bf 80 02 85 be 4f d6 ce be
       -0.5147404 -0.5022546 -0.2597847 -0.4039788
0002f0 43 85 30 bf 4a 0e ab be 99 43 c0 3d 5e 5f ac be
       -0.6895334 -0.3340934 0.09387893 -0.3366651
000300 ec 20 57 be 1f 48 1e 3e 01 aa 43 be 08 b6 3c bf
       -0.21008652 0.154572 -0.1910782 -0.7371526
000310 eb a5 6b 3c 49 24 96 be 60 d4 46 bf 33 e8 f6 be
       0.01438282 -0.29324558 -0.7766781 -0.4822403
000320 ed 3e 16 bd 19 15 c9 be c3 bd 11 bf 15 57 14 bf
       -0.036681104 -0.3927391 -0.5693018 -0.57945377
000330 45 d1 f6 be fe 14 90 be 77 ee 21 be 23 cc 3b be
       -0.48206535 -0.28141016 -0.15813623 -0.1833959
000340 48 03 04 bf 1b 8a f9 bd 6e 08 c4 be fd d1 28 bf
       -0.51567507 -0.12184545 -0.3828768 -0.65945417
000350 cd 4a 43 bf 1a 52 05 be 91 71 8c be 2a b3 86 be
       -0.7628601 -0.130196 -0.27430394 -0.26308566
000360 36 b4 0b bf 99 7b 05 bf 7c 70 3b bf fa a8 2b bf
       -0.54571855 -0.5214172 -0.7321851 -0.6705471
000370 49 4f b1 3e 13 38 d9 be 1b 94 ca be 55 49 bf be
       0.34630802 -0.42425594 -0.3956612 -0.37360635
000380 35 cf 2f be eb 06 01 bf 05 b7 98 be 63 84 da be
       -0.17168887 -0.5040118 -0.29827133 -0.42679128
000390 c8 0e ee be a0 69 da be 1f a1 ef be 0e c7 1e bf
       -0.46495652 -0.4265871 -0.46802613 -0.62022483
0003a0 89 76 0e bf c0 30 1b bf c1 1a 71 bd a4 29 30 bf
       -0.5564962 -0.6062126 -0.058863405 -0.6881354
0003b0 fa 96 0e bf 11 36 0f bf 20 c7 81 be 89 85 51 3c
       -0.5569912 -0.55941874 -0.25347233 0.012788185
0003c0 0b ff c9 be 98 9b 05 bf 67 74 7e be be c3 50 bf
       -0.39452395 -0.5219054 -0.24849091 -0.8154868
0003d0 08 58 69 be 53 fe fa bd f6 3a cb be f2 7a 0e bf
       -0.22787488 -0.1225554 -0.3969342 -0.5565635
0003e0 78 75 80 be f5 c1 38 be b8 f9 31 3e 47 bc 55 bf
       -0.25089622 -0.18042739 0.17380416 -0.83490413
0003f0 00 2c d2 be a1 c3 34 bf 54 16 0d bd f3 a4 78 3e
       -0.41049194 -0.70611006 -0.034445122 0.24281673

layer_2.weight f4 [300, 400]
000000 a8 49 3f bf 80 03 2a bf d9 07 c4 be e7 82 45 3e
       -0.74721766 -0.6641159 -0.38287237 0.19288217
000010 e4 b1 d5 3c 59 98 cf be f5 ad 9a be d0 02 59 bd
       0.026085801 -0.4054592 -0.30210844 -0.052981198
000020 19 70 8e bb 43 88 7c 3e 99 cd fb be 5d cf 7b bf
       -0.004346859 0.24661355 -0.49180296 -0.98363286
000030 2f 0b 5f 3e 91 e3 87 3c a3 b5 b1 3e b5 62 09 3e
       0.2178161 0.016588004 0.3470889 0.1341656
000040 c3 86 aa 3e 41 f9 c7 bd 0b 87 36 be 15 af 35 3e
       0.3330594 -0.09764338 -0.17824952 0.1774257
000050 9f fb 8e be 07 78 82 bf fa 40 3a bf 34 da 1f 3f
       -0.27926347 -1.019288 -0.72755396 0.62442327
000060 44 3e 82 bf f0 89 2e bf 5e 7c 57 bf ee 70 91 3e
       -1.0175252 -0.68179226 -0.84174144 0.2840647
000070 95 f1 b0 be 25 01 96 be 2b 2f 4f bf 25 09 82 3f
       -0.34559312 -0.29297748 -0.8093135 1.0159041
000080 df 2e 48 be e0 09 f8 bd 03 4d 47 bf eb 31 05 bf
       -0.1954913 -0.121112585 -0.77851886 -0.52029294
000090 43 47 d6 bd 68 89 08 3f 9e 9c 4e 3e 13 bb 0e bf
       -0.10462811 0.53334665 0.20176932 -0.557542
0000a0 8a 98 cd 3e df 43 20 bd 33 16 89 3d 28 5e ad 3e
       0.4015544 -0.039127227 0.06693687 0.33860898
0000b0 98 ac e4 be 8e fb 5c be f2 6f b2 3e 03 fc a3 be
       -0.4466293 -0.21580335 0.34851032 -0.32028207
0000c0 8a 83 22 bf c7 e1 b7 be 4d ba 0e bf 68 a1 ec bd
       -0.6348196 -0.35914442 -0.5575302 -0.11554223
0000d0 00 2b 64 3e 97 bb 6b bf 1b 57 8d bf 73 98 90 bf
       0.22282028 -0.92083114 -1.1042207 -1.1296524
0000e0 2e a7 e0 3e e1 b8 37 3d 81 4d 28 bd 11 d3 17 bf
       0.43877548 0.04485405 -0.04108954 -0.59306437
0000f0 a2 48 5e bf cc d1 50 bf f1 d6 d9 be 40 1f 9b bf
       -0.8682958 -0.81570125 -0.425468 -1.2118912
000100 da ac a1 bf ea 48 19 bf 86 51 78 3f aa 8a 35 bf
       -1.2630875 -0.59876883 0.96999395 -0.7091471
000110 97 d1 47 bf 7c ed 3f 3e 1c b6 e9 bd 1b 0e dd bc
       -0.78054184 0.18742937 -0.11411688 -0.026984265
000120 85 07 bc be c6 16 40 be 5f d0 4c be c8 a5 50 be
       -0.36724487 -0.18758687 -0.20001362 -0.2037574
000130 c7 3b 5a 3f c1 27 68 bf c7 28 1c bf 7c eb 58 3d
       0.85247463 -0.9068566 -0.6099972 0.05295895
000140 bc 17 46 3f e8 a1 84 be 39 da 0d bd c5 31 1a 3f
       0.77379966 -0.25904775 -0.03463194 0.6023219
000150 95 1b df be 68 f7 70 be fe ca 69 bf 0c 30 ef be
       -0.4357573 -0.23531878 -0.91325366 -0.46716344
000160 25 1c a4 bf 78 8a 09 c0 21 27 67 bd a6 b1 9e bd
       -1.2821089 -2.1490765 -0.0564338 -0.077487275
000170 c2 52 91 be f0 2c aa be 21 8c 8f be 5d ce 20 3f
       -0.28383452 -0.3323741 -0.28036597 0.62814885
000180 f8 cc 87 bf 99 9a 0c 3f cd 43 c2 3d 58 67 15 bf
       -1.0609426 0.549234 0.09485588 -0.58360815
000190 6e 2a c9 3e d7 4c 0c bf af 01 55 3d 97 ea 64 bf
       0.39290184 -0.5480475 0.05200356 -0.89420456
0001a0 50 98 0c bf ca 7b 7a bf aa fe 2f bf 3b 29 85 3e
       -0.5491991 -0.9784514 -0.6874796 0.2600802
0001b0 8f 7b 2b bf d6 bd 14 3f 00 84 2e 3f fa 39 44 bf
       -0.6698541 0.58102167 0.68170166 -0.76650965
0001c0 a3 dc 3b 3d 78 1a 2d bf f4 c6 42 be b5 33 70 be
       0.045864712 -0.67618513 -0.19021207 -0.23457225
0001d0 2f a1 14 bd e4 c1 a6 3e 31 2d 53 bf 08 12 08 3f
       -0.03628653 0.32569802 -0.8249083 0.53152514
0001e0 07 02 ba 3c b4 88 d6 bf fd d8 42 bf da ac 3f bf
       0.022706045 -1.6760468 -0.7611235 -0.74873126
0001f0 15 d4 8d be b7 c6 a6 3e a1 4b 57 3d 43 8b cd 3e
       -0.27700868 0.32573482 0.05256236 0.4014531
000200 0a 82 c0 bf bb d8 9c bf 7b 60 cb be 1f 58 61 bf
       -1.5039685 -1.2253641 -0.39722046 -0.8802509
000210 43 7a 96 3d 7a 9f 9d be c8 82 8b be 4f 00 8d be
       0.07347538 -0.30785733 -0.27248216 -0.27539298
000220 80 e3 0c 3e ae d5 19 bf a0 4c 87 3b 78 36 8f 3d
       0.1375866 -0.60091674 0.0041290075 0.06992811
000230 0c 19 18 3e f8 04 e0 be 6f 24 36 bf 90 ca f0 be
       0.14853305 -0.4375379 -0.71149343 -0.47029543
000240 86 48 3e bf 40 2c c9 be 81 f4 92 bf 60 56 3f be
       -0.7432941 -0.39291573 -1.1480867 -0.18685293
000250 29 97 83 be 97 73 0b be 0a 53 3d bf ff 77 e3 be
       -0.25701264 -0.13618313 -0.7395483 -0.44427487
000260 c5 bc 52 bf 52 43 ef be 3a 7f 47 bf 87 08 1a bf
       -0.8231929 -0.4673105 -0.7792851 -0.6016926
000270 d4 13 16 3f fe 0e 66 bf 07 ca 18 bf 27 d7 8e 3e
       0.58624005 -0.89866626 -0.5968327 0.27898523
000280 b2 97 51 bd 3b 82 48 3d e9 4c 8f 3d 97 2b 9a be
       -0.05117006 0.048952322 0.06997091 -0.3011138
000290 a5 7e 06 be da b6 e5 3e dc 11 90 3e 8e 6f f3 be
       -0.13134249 0.44866067 0.28138626 -0.47546047
0002a0 d3 b0 b6 bd a9 6f 01 3d 04 93 b4 be 58 79 1f 3d
       -0.08920445 0.031600628 -0.35268414 0.03893408
0002b0 e0 23 9c be 49 06 0e be 33 55 b6 be 4e 0e 69 bf
       -0.3049612 -0.13869585 -0.35611877 -0.9103745
0002c0 d1 ac 84 3d 33 7f b7 be ca 37 f0 3e 13 da 04 bf
       0.064782746 -0.35839233 0.46917564 -0.51895255
0002d0 06 c6 cd 3e 3a 87 e8 3e 74 2f 4e bd a0 83 49 bf
       0.40190142 0.4541567 -0.050338224 -0.7871647
0002e0 85 c4 3f be dd a1 69 be a4 4c b7 bd 21 20 82 3d
       -0.1872731 -0.22815652 -0.08950165 0.06353784
0002f0 c3 84 8d 3f 87 f1 80 be 61 e1 15 3e 92 ae fa bd
       1.1056141 -0.2518427 0.14636756 -0.12240328
000300 e0 43 0a bf 9d 31 3b 3e be a0 aa be a1 6e 9d bf
       -0.5400982 0.18280645 -0.33325762 -1.2299386
000310 cc 75 57 3d 1f c1 a6 be c3 9b ad 3f 0a 0c fa 3e
       0.052602574 -0.32569215 1.356316 0.4883731
000320 2c b3 79 be 19 59 1d bf 47 12 71 bf 73 f6 6a bf
       -0.24384755 -0.6146408 -0.94168514 -0.917823
000330 8f 75 33 3e 34 86 33 be 90 7c 42 bf 7d 29 18 3f
       0.17525314 -0.17531663 -0.7597132 0.59438306
000340 8c 39 92 3e ca 2d 01 bf 5d d2 be bb 4b 64 ac 3f
       0.2855953 -0.50460494 -0.005823417 1.3468107
000350 c8 f2 31 bf 48 b0 7f bf a8 29 1b be 1d 89 0a be
       -0.6951108 -0.9987836 -0.1515261 -0.13528867
000360 87 7a f5 3e da a3 79 bf d0 e7 7e bf 63 3b 26 bf
       0.47945043 -0.9751564 -0.9957247 -0.64934367
000370 dc f3 02 bf 2a b2 b1 bf 47 86 64 3f da 18 9f be
       -0.5115335 -1.3882496 0.8926739 -0.31073648
000380 17 0d 9b bf 73 e9 18 bd 32 ac 31 bf d7 38 4d bd
       -1.211337 -0.03733201 -0.69403374 -0.050103035
000390 63 89 45 3f f4 3b 02 bf 9e 14 4c 3d 37 bc 74 bf
       0.7716276 -0.5087273 0.04982435 -0.95599693
0003a0 a0 16 71 be ff 1f ee 3e 68 51 54 bf 33 8d ab 3e
       -0.23543787 0.46508786 -0.82936716 0.33506164
0003b0 dd a5 7d bd a0 62 e0 3e 80 fc 61 bf cd ad 79 3b
       -0.061925758 0.43825245 -0.8827591 0.0038097978
0003c0 0a d8 08 bf 74 a2 2f bf fc f6 21 3e 68 70 03 c0
       -0.5345465 -0.6860726 0.15816873 -2.0537357
0003d0 36 f8 fb be ed 9f 7a bd 85 07 a6 3e ea 32 39 3d
       -0.49212807 -0.061187673 0.32427612 0.04521457
0003e0 4b 4d e2 be 47 77 44 be cd f6 81 3e ad 25 ff 3e
       -0.44199595 -0.19186126 0.25383607 0.49833432
0003f0 93 13 cf bf 94 97 04 3e 82 ea 10 c0 bc 16 38 bf
       -1.6177849 0.12948447 -2.2643132 -0.7190969

layer_2.bias f4 [300]
000000 bc ea a7 bd 2e 5d 50 bf 91 91 d8 3e 9d 49 73 bd
       -0.08199069 -0.8139218 0.42298558 -0.059396375
000010 22 88 83 bd 17 6c 21 bf c2 26 1e bf 69 52 17 3f
       -0.0642245 -0.63055557 -0.6177789 0.5911012
000020 c2 98 17 be 3a e9 bb bd 48 60 08 bf 1f d6 dc be
       -0.14804366 -0.09175344 -0.53271914 -0.4313211
000030 40 6b 2b bd a3 12 43 bf e2 1b bf 3d 24 1c 14 be
       -0.04185033 -0.7620031 0.0933149 -0.1446386
000040 f8 f7 c7 be c2 6d 89 bd 55 77 b8 bf 46 4c ef 3e
       -0.39056373 -0.06710388 -1.4411417 0.4673788
000050 d4 23 a8 bd ba a7 b8 bd d9 f3 73 bd 75 42 cb bd
       -0.08209959 -0.09016366 -0.059558723 -0.09924785
000060 f0 51 81 be 77 ef ed be 99 fa ee bd 0c 00 6f bd
       -0.25257826 -0.4647176 -0.116688915 -0.058349654
000070 b8 84 a3 bf de 94 d7 be 0e 6d b7 3e 9a fd 8c bf
       -1.2774878 -0.42105764 0.3582539 -1.1014893
000080 68 7a a8 bb 72 5d 21 be 81 60 92 3d 0a 46 35 3e
       -0.005141545 -0.15758303 0.07147313 0.17702499
000090 18 d4 ae bd db 85 6d bf c9 12 8c bd 66 33 16 bf
       -0.085365474 -0.9278237 -0.068395205 -0.5867218
0000a0 8c a1 35 bd 13 ab 03 be c5 57 2e bd 9b ed 63 bf
       -0.044343516 -0.12858228 -0.042564172 -0.8903443
0000b0 a4 db 83 bd d3 61 0d bc f3 f6 a3 be 42 ef 7d bd
       -0.064383775 -0.00862928 -0.32024345 -0.061995752
0000c0 f7 85 5f 3f af 2d b2 bd 58 f8 73 bd 62 80 b5 bc
       0.8731379 -0.0870012 -0.05956301 -0.022155944
0000d0 7c 28 78 bc 85 87 24 be 76 d8 fb bd 47 65 9a 3e
       -0.015146371 -0.16067322 -0.12297146 0.30155393
0000e0 f3 ed fc bc 18 a5 da 3e d3 15 20 3f f2 31 50 bd
       -0.030875182 0.42704082 0.625333 -0.05082888
0000f0 4c e8 10 be 91 78 b6 be ab 67 12 bf 0d 4d 1e bf
       -0.14151114 -0.3563886 -0.57189435 -0.6183632
000100 45 e5 1a bd b6 f6 38 be 86 79 9a bd e9 44 42 bd
       -0.037816305 -0.18062863 -0.0754271 -0.047429
000110 5b 5f a5 bd d6 c2 1e 3f e8 89 97 3e 05 45 67 bf
       -0.08074828 0.62016046 0.29597402 -0.9033969
000120 c1 b9 3b 3e de 0b 23 be 15 5d d4 bc fa 47 6b be
       0.18332578 -0.15922496 -0.025923291 -0.22976676
000130 10 1c 4f bc ee 55 1d 3f ab 00 32 be 9c 4a a1 bd
       -0.012640968 0.61459243 -0.17383067 -0.07875559
000140 62 49 b1 3d 9a 8a 5a bf 18 3b 84 bd 33 51 a8 be
       0.08656575 -0.8536774 -0.06456584 -0.3287445
000150 e7 8c 65 be 08 0f cb bd 45 65 12 be 0b 10 f2 bd
       -0.22417031 -0.09914976 -0.14296444 -0.11819466
000160 45 84 ef bd 73 9e 8b 3e f2 46 97 bd 0c 54 97 bd
       -0.1169515 0.27269325 -0.073865786 -0.073890775
000170 fd 58 0f be e7 39 2c 3e 90 6a 96 be 5d b8 46 bf
       -0.1399879 0.16818963 -0.29378176 -0.77625066
000180 7e c0 d1 bd 83 a0 b5 be 3b 75 fc bd f6 8a 01 bd
       -0.10241793 -0.35474023 -0.123270474 -0.031626664
000190 6f de f3 be 41 26 6c bf 80 be 42 be a9 c7 2e bd
       -0.4763064 -0.9224587 -0.19017982 -0.04267088
0001a0 62 dc 00 be 7f 04 41 bf c8 83 8f bd f4 50 b7 3f
       -0.1258407 -0.75397485 -0.07007557 1.432158
0001b0 8c 86 42 3e 1e 0f e6 be 2d bd 00 bd 23 b0 1b 3f
       0.18996638 -0.44933408 -0.031430412 0.6081564
0001c0 69 ab b3 bd db 88 0b 3b 53 d3 82 3e ac 93 35 bf
       -0.08772928 0.002129129 0.25551853 -0.70928454
0001d0 15 1c 06 bf 4d f6 8d bd 92 4b 76 bd d4 d1 9e 3e
       -0.523866 -0.06931744 -0.060130663 0.3101946
0001e0 77 3a 1a bf f9 e5 a5 bd cd 97 68 bf fe 9e 63 be
       -0.6024546 -0.081005044 -0.9085663 -0.2222862
0001f0 0c d9 7c bd 9a 89 c9 be da 6f 4d be 42 bd 7b bc
       -0.06173043 -0.39362794 -0.20062199 -0.015364947
000200 dc 9b 76 bd 72 d9 77 3f ee 43 15 bd 8c 1c cb 3c
       -0.060207233 0.9681617 -0.036441736 0.024793886
000210 83 31 c8 3e b6 6c b4 bc 84 95 66 be 9d c6 e9 be
       0.39100274 -0.022024494 -0.22517973 -0.45659342
000220 99 6d a9 bd b6 1e c5 bd d4 1b ef 3e e0 69 92 bd
       -0.08272857 -0.09624998 0.4670092 -0.071491
000230 ef 99 a6 bd ea 52 41 3d 4c 15 1e bf 1a 62 0e be
       -0.08134829 0.047198214 -0.61751246 -0.1390461
000240 a3 a4 b8 bf 51 b5 34 3f d5 a4 30 bd 3f 4a 28 3f
       -1.4425243 0.70589167 -0.043125946 0.6573829
000250 43 c8 5d bd ec aa ac bb 0a 82 24 be 4f a0 9e 3e
       -0.054146063 -0.005269399 -0.16065231 0.3098168
000260 d7 00 bd bd 79 d6 6c 3e 29 9e 87 bd 57 58 84 be
       -0.09228676 0.2312869 -0.066219635 -0.25848648
000270 4d ea fb be a2 66 b2 be 56 f2 c3 3e 71 82 03 3e
       -0.49202195 -0.34843928 0.38270825 0.12842728
000280 55 19 bf bd bd e1 34 bd 0d 0e 9b bd c3 38 9e be
       -0.093310036 -0.044160593 -0.07571039 -0.3090268
000290 37 2d d7 bd 25 c4 bb 3d 98 79 b4 be 36 b4 0e bf
       -0.10506671 0.09168271 -0.3524902 -0.5574373
0002a0 ac 64 3b bd 25 28 6a be ba ec a6 bc f0 16 77 be
       -0.045750305 -0.22866876 -0.020376552 -0.24129844
0002b0 49 2c bd 3e aa b6 8e be b1 a0 5f be 52 28 f3 3d
       0.3694785 -0.27873737 -0.21838643 0.11872925
0002c0 7b fd 84 bd 5f 5b ab bd f8 cf 9d 3c 69 7e b2 be
       -0.0649366 -0.08367037 0.019264206 -0.34862068
0002d0 ca 42 af bd f8 94 89 3e 1b 11 e5 3e c2 6f 5b be
       -0.08557661 0.26871467 0.44739613 -0.21429351
0002e0 70 84 21 bd 7d 99 1e bd 34 df 37 bf ea 28 2f be
       -0.039432943 -0.038720597 -0.71824956 -0.17105451
0002f0 31 ec 5e be 37 a5 26 bf 94 23 5f bd 33 11 f3 bd
       -0.21769787 -0.6509585 -0.05447729 -0.11868515
000300 4b b4 b0 bd 54 98 a4 3d cb e7 0c bf 36 21 1b 3f
       -0.08628138 0.08036867 -0.5504119 0.6059755
000310 ad e8 ec bd 3d b2 e1 bd 8f c9 c1 be bf 94 cf be
       -0.11567817 -0.110203244 -0.3784909 -0.40543172
000320 82 fd bd be 1a 5d 1e 3f 78 0a 86 bc 1f be 27 3d
       -0.37107474 0.6186081 -0.016362414 0.040952798
000330 2c 4a bc bd 17 1d b1 bd c4 18 3b be ca a3 96 be
       -0.09193835 -0.086481266 -0.18271166 -0.29421836
000340 48 aa 68 bd c2 12 b0 bd bf 33 d7 bd f3 b9 3b bf
       -0.056803018 -0.08597328 -0.10507917 -0.7333061
000350 40 97 ac bd 0f 32 ac bd 0a f8 35 bd 7e f4 49 be
       -0.08427286 -0.084079854 -0.044426 -0.19722173
000360 c6 54 e6 bd 5d bd 66 bf 29 be 06 bd bc fa 46 bd
       -0.11246638 -0.90132695 -0.032896195 -0.048578963
000370 f9 ae be bd 35 a0 73 bd 15 43 cc bd 12 e0 ad bd
       -0.09310717 -0.059478957 -0.099737324 -0.08490004
000380 8e 59 5e bd 39 61 14 be 17 bc 66 bd 26 4d 1f bf
       -0.054284625 -0.14490213 -0.05633172 -0.62227094
000390 4d 7e e4 bd 22 32 09 3f 39 57 a3 be c4 97 ce bd
       -0.111569025 0.5359212 -0.31902483 -0.10087541
0003a0 4c 7b 15 be 4c 1c 02 bf 37 0f 86 3e a9 00 77 be
       -0.14597815 -0.5082443 0.26183483 -0.24121346
0003b0 c9 fd ba be bd f1 41 bd 3d 5a af bd f4 4b 4f 3d
       -0.36521748 -0.04734968 -0.085621335 0.050609544
0003c0 e2 22 b8 be 24 a1 7b be b7 b2 69 bd 0a 8b 79 bd
       -0.35964113 -0.24573189 -0.0570552 -0.060923614
0003d0 e6 41 a1 bd c1 ad 64 bd 8a ef d0 bd 01 5d ce bd
       -0.07873897 -0.055829767 -0.102019385 -0.10076333
0003e0 75 3a ae bd a8 16 af 3c 06 d9 a0 bd 0a ac 33 bf
       -0.085072435 0.021373108 -0.07853894 -0.70184386
0003f0 4a ff 56 bd 8b ec 41 3d 23 1a 16 bd 9c 7d 15 bf
       -0.052489556 0.047344726 -0.03664602 -0.5839479

layer_3.weight f4 [8, 300]
000000 5e e8 03 3e 18 53 27 be b6 ce 83 bd f5 30 33 bc
       0.1288161 -0.16340292 -0.06435911 -0.010936965
000010 f1 50 46 3d 50 e6 44 bf 27 65 5e 3e de 79 2a 3f
       0.048417035 -0.7691393 0.21718274 0.66592205
000020 10 25 8b 3e 62 02 f9 3c 6c 90 d3 3f e7 82 da be
       0.27176714 0.030396644 1.6528449 -0.42677996
000030 f2 dd 07 3d 55 5e 87 3e b8 12 42 bf e1 2d 5a be
       0.033170648 0.26439157 -0.7580981 -0.21306564
000040 8b 31 b6 bd be 29 8e bc fe f7 45 3f ef 92 49 3e
       -0.08896168 -0.017353889 0.7733153 0.19684957
000050 4f 54 3e 3b 41 ce a6 bc f2 d7 84 be 16 72 20 bc
       0.002904195 -0.020362021 -0.25946003 -0.009792825
000060 61 b0 09 3e ed a9 52 3d 87 bb 6e 3c bf d1 55 3c
       0.1344619 0.051431585 0.014571077 0.013050496
000070 ee b7 b7 3e 16 66 9d bf da a6 98 bf 0d 10 1e 3f
       0.35882515 -1.2296779 -1.1925919 0.6174324
000080 00 dd 0e 3d 89 58 9f 3e 0f 0d 88 be 10 a1 10 3f
       0.03487873 0.31122234 -0.26572463 0.5649576
000090 22 4e e4 bd 04 15 2e 3f 31 0b df 3b c8 49 96 be
       -0.11147715 0.6800082 0.006806754 -0.29353166
0000a0 dd ca 99 bc 41 64 28 3e c1 2b 7d 3b a2 a0 1a bf
       -0.01877349 0.16444494 0.0038630816 -0.60401356
0000b0 ea 28 08 3d 1b a3 27 3d fc 7e e1 3d 4d 6e 98 bc
       0.033242144 0.040927034 0.110105485 -0.018607283
0000c0 0e 9a ca be c6 6f bd 3c b2 21 96 3d 8e 21 df 3d
       -0.3957066 0.023124587 0.073306456 0.10895072
0000d0 37 5b a7 3e 02 f2 80 3d 15 81 c7 3e 40 56 b9 bf
       0.3268678 0.06296159 0.3896567 -1.4479446
0000e0 b2 8d f3 b9 b2 8c a9 3f c7 5a a4 be 3e 7b ff bc
       -0.00046454143 1.3246062 -0.32100508 -0.031186696
0000f0 6b dd b8 3c 8b 68 ca be 23 17 97 3e 79 ce 58 be
       0.022566518 -0.39532885 0.2950984 -0.21172513
000100 f9 8e 17 3d 1b 50 d9 3e 06 cc 90 bd f4 68 2b bd
       0.037001584 0.42443928 -0.070701644 -0.041848138
000110 ae d2 de 3c 86 56 c2 3f c1 ce 47 3f f6 5c 05 bf
       0.02720007 1.5182655 0.78049856 -0.5209497
000120 5b a4 f6 be 3c 25 8c be e6 3e 92 bc c1 89 32 bf
       -0.48172268 -0.27372158 -0.017852258 -0.69741446
000130 57 75 05 3d 6b 28 88 be 25 da 5f bf 7b 34 87 bd
       0.032582607 -0.26593336 -0.8744224 -0.06601807
000140 11 a0 c2 3f f8 61 4e bf 79 0c f0 3c 94 bb 8c be
       1.5205098 -0.8061824 0.029302822 -0.2748686
000150 26 00 5b 3d fc ad 27 bd d4 a0 78 bd 9c 88 bb bb
       0.05346694 -0.04093741 -0.060700253 -0.005723072
000160 e8 2e 89 bc 99 b1 70 3e 64 97 2b bc 2f e2 46 bd
       -0.016746 0.23505248 -0.010473106 -0.04855555
000170 9c 94 09 bd 61 d8 68 be 1c 6f a8 be 2c 2d 92 be
       -0.03358899 -0.22738792 -0.3289727 -0.28550088
000180 05 1d 21 3d c6 ef 1a 40 f3 a1 a2 bc df f6 af bc
       0.039334316 2.4208846 -0.019852614 -0.021480022
000190 a0 67 ec be ea ca d9 bf 9c ad db be 94 b4 12 bc
       -0.4617281 -1.701505 -0.4290589 -0.008954186
0001a0 23 77 4f 3d 55 72 d7 3d 81 86 b9 bc cf 55 bc be
       0.050650727 0.10519854 -0.022647144 -0.36784217
0001b0 85 bc e8 3e cf 4d 5b bf 4f 03 e6 bc ae c4 3a bf
       0.4545633 -0.856656 -0.02807775 -0.7295636
0001c0 49 2c 43 bc 7f 0b b8 3c ea cd 7d 3f 4c 64 80 3e
       -0.011912414 0.02246642 0.99142325 0.2507652
0001d0 f6 df 40 3e c5 87 07 3c 88 37 5f 3d ca d6 1b be
       0.18835434 0.008272116 0.054496318 -0.15218654
0001e0 b3 ad b2 be be 11 f7 3e 62 42 5a 3f e8 ab 2e 3e
       -0.34898147 0.48255724 0.8525754 0.17057765
0001f0 7a 84 47 3d 3d ef 2b 3e e3 73 fa 3f a2 96 b9 3e
       0.048710324 0.16790481 1.9566616 0.36247736
000200 72 79 09 bc ea eb 35 3f 27 c8 93 3c 86 ca 89 3d
       -0.008390771 0.710631 0.018039776 0.067280814
000210 b3 e5 54 bf 11 bd a0 3d 14 c6 a7 3c a9 46 69 bd
       -0.83162993 0.078485616 0.020480193 -0.056952152
000220 11 21 ac bc 2d 4d 06 bd 33 51 29 3f e3 72 99 3d
       -0.021011861 -0.032788444 0.66139525 0.07492616
000230 bc 69 c8 3b 8a 3f 8d bc c8 46 cc 3e b7 1f a2 3d
       0.00611612 -0.017242212 0.39897752 0.079162054
000240 7f 42 0e 3e a6 f9 e6 be 20 84 0e 3d ff 93 71 3e
       0.13892554 -0.45112342 0.034793973 0.23591612
000250 1f 9c dd 3c 67 4e 36 3d 2c 09 ce b9 38 94 99 be
       0.027051983 0.044508364 -0.00039298215 -0.29995894
000260 7b 59 a0 bd 3e e6 5c bf e8 cb a9 3d 84 7e 27 bd
       -0.07829567 -0.8628882 0.08290845 -0.04089214
000270 39 cc cf 3d 6b 4b 2d bf 19 e9 30 3f e8 bb 62 bb
       0.10146374 -0.67693204 0.6910568 -0.0034596864
000280 a0 fd 89 bc 3b 18 f2 3c 3d ab 39 bd 42 01 45 be
       -0.01684457 0.02955257 -0.04532932 -0.19238761
000290 9d a9 1a bb ad 2f 2b bd 55 2f b4 3d 51 2f 31 3d
       -0.0023599633 -0.041793514 0.0879809 0.043258015
0002a0 99 4d ef bb 99 bd 32 bd ac 95 d4 bc 89 9a 79 bf
       -0.0073029515 -0.043637846 -0.025950275 -0.97501427
0002b0 16 f7 0a 3e ae 45 f5 be 7a 70 40 be 19 8b fa 3d
       0.13570818 -0.47904724 -0.18792906 0.12233562
0002c0 a3 7b bf 3d ae 51 c5 bb cc 76 bb 3f 4f b0 b2 bd
       0.09349754 -0.0060217 1.4645629 -0.087250344
0002d0 a5 12 a3 bc 76 d6 40 bf f3 55 8d 3d ba 75 c3 bd
       -0.019906351 -0.7532724 0.06901159 -0.09543939
0002e0 c4 7c 56 bd 0d b8 db 3c 6d aa 42 3e 4d 12 8c 3f
       -0.05236508 0.02682116 0.19010325 1.0943085
0002f0 db 5f ca bd 15 5f cc bc d2 59 80 be 6c 0a 0d 3d
       -0.09881564 -0.024947682 -0.25068527 0.034433767
000300 33 e2 52 3c fd 02 d5 be 45 21 0d 3f c8 c5 71 3e
       0.012871313 -0.41603842 0.5512889 0.23610604
000310 43 91 b4 bc c4 58 db bc e7 e5 31 bf 41 89 ad 3c
       -0.022041922 -0.026775725 -0.6949143 0.021183612
000320 12 a7 6e 3f 92 22 f4 bf bd 03 92 bb 22 22 11 bc
       0.9322368 -1.907305 -0.004456012 -0.008858236
000330 a5 91 44 bc 36 75 59 be ce 96 c7 3e 8b d8 c2 be
       -0.011997615 -0.21236119 0.38982242 -0.38055834
000340 40 d2 5a bd 81 d1 11 3d 9f a5 05 bd 98 a6 f1 3e
       -0.053423166 0.03560019 -0.03262865 0.47197413
000350 00 56 a4 bf 1b e3 8d 3d c6 ac 25 3d 6f 0f 0b be
       -1.2838745 0.069280826 0.040447973 -0.13580106
000360 96 82 c0 bd c7 0a b2 3e 9c d0 f7 3c 55 91 da bc
       -0.09399907 0.34773847 0.03025084 -0.026680628
000370 86 d8 5c ba ae a6 78 3c 93 9a 41 3f 47 ca a2 bd
       -0.00084245985 0.015176458 0.75626487 -0.079487376
000380 f9 a1 0f 3d d9 bd 85 bd df 9a 62 bc af fc 3b be
       0.03506658 -0.06530351 -0.013830869 -0.1835811
000390 1d e3 58 bf 41 12 16 3f b2 8a 23 3f 17 61 af bd
       -0.8472155 0.58621603 0.6388351 -0.0856344
0003a0 bd 33 5c bf e9 31 25 3e ef 5b 62 3f c2 35 8b bf
       -0.86016446 0.1613232 0.8842153 -1.087578
0003b0 6f b0 2f 3d 3c a6 06 3c 1d 18 6f 3d 06 40 0f 3d
       0.04289287 0.008218344 0.058372606 0.034973167
0003c0 7a 1a 2e bf 48 8c 8b 3e 55 d4 db 3c c6 62 12 3d
       -0.6800915 0.27255464 0.026834646 0.03573873
0003d0 89 51 3e 3c 16 aa 9d 3d 1f 2d e2 3c 85 d9 b2 bc
       0.011616119 0.07698457 0.027609406 -0.021832237
0003e0 de ec 39 3d 8a fe 93 bd 27 35 df 3c e7 32 e4 3f
       0.04539191 -0.07226284 0.027247025 1.7828034
0003f0 ae c0 58 3d 7a 50 5c 3f 09 e8 a5 bb fc 30 a9 3d
       0.05291813 0.860603 -0.005063061 0.08261296

layer_3.bias f4 [8]
000000 54 20 25 3f cf b0 37 be b4 b2 19 be 52 5c 40 be
       0.64502454 -0.17938541 -0.15009576 -0.18785217
000010 1c 7c ed bd 79 4b 34 bd a1 c2 fe bd 1f f1 6f 3d
       -0.115959376 -0.04401729 -0.12439466 0.05857956
