TD3_Walker2DBulletEnv-v0_0_actor.pth (torch_old, 526227 bytes, 6 tensors)

layer_1.weight f4 [400, 22]
0	0xbedd52fa	-0.4322737
1	0x3dea3ae8	0.11437017
2	0xbf417515	-0.7556928
3	0xbfeb99f8	-1.8406363
4	0xbda82c02	-0.08211519
5	0x3e35e879	0.17764463
6	0xbb8a6b00	-0.004224181
7	0xbf6f5d44	-0.9350169
8	0xbca08214	-0.019593276
9	0xbf143bec	-0.57903934
10	0xbf264507	-0.6494908
11	0x3f5b5c3d	0.8568762
12	0xbef5648e	-0.4792828
13	0xbfa7007c	-1.3047023
14	0xbf1320dd	-0.5747202
15	0x3f1d77be	0.6151084
16	0xbe1ff37f	-0.1562023
17	0x3fd0d90e	1.631624
18	0xbdc4ed55	-0.0961558
19	0xbed46fa9	-0.4149144
20	0xbf246e8b	-0.64231175
21	0xbe39d21c	-0.18146557
22	0x3f872dca	1.0560849
23	0x3e235e9c	0.1595406
24	0xbcd04a79	-0.025426136
25	0x3f00c0dc	0.5029428
26	0x3e45ae6c	0.19304818
27	0x3f88b790	1.0681019
28	0xbe09706e	-0.13421795
29	0xbf731904	-0.94960046
30	0xbf0fb2d0	-0.5613222
31	0x3c8c60eb	0.017136058
32	0xbe1fb465	-0.15596159
33	0xbda08d94	-0.07839504
34	0x3bcc6a82	0.0062382827
35	0x3f0420cb	0.5161254
36	0xbe9401f0	-0.28907728
37	0x3f28d923	0.65956324
38	0x3f7cb9f6	0.98721254
39	0x3f6f795f	0.9354457
40	0xbe2dc177	-0.16968332
41	0xbf54a995	-0.8307126
42	0x3f0a767e	0.54087055
43	0xbf583bea	-0.8446642
44	0xbe995269	-0.29945686
45	0xbde11936	-0.10991137
46	0x3ec6c833	0.38824615
47	0x40309145	2.7588665
48	0xbdc1a53f	-0.09455346
49	0x3f16b1bf	0.5886497
50	0x3e0ba098	0.1363548
51	0x3fcf1357	1.6177777
52	0x3eefa746	0.46807307
53	0xbf52246d	-0.8208683
54	0xbf3868aa	-0.72034705
55	0xbfa4845e	-1.2852895
56	0x3ed565b2	0.4167915
57	0xbdf21137	-0.1181969
58	0xbf8ad6e6	-1.0846832
59	0x3e9019f8	0.28144813
60	0x3eab6d09	0.33481625
61	0xbef1034c	-0.47072828
62	0xbef12d21	-0.47104743
63	0x3ce98b12	0.028508697
64	0x3eedb3d6	0.46426266
65	0xbbae6794	-0.005322406
66	0x3d2148f9	0.039376233
67	0x3d4a5740	0.049399614
68	0x3ef67b1f	0.4814081
69	0x3f9ea238	1.2393255
70	0xbe283d9a	-0.16429749
71	0xbf8f25fd	-1.1183468
72	0x3dab9a18	0.083790004
73	0x3e718beb	0.2358853
74	0x3f26f218	0.65213156
75	0x3ed65029	0.41858032
76	0x3de7a86f	0.11311423
77	0xbf199251	-0.59988886
78	0xbf82c541	-1.0216447
79	0x3c883b64	0.016629882
80	0xbf70a610	-0.9400339
81	0xbf197b12	-0.59953415
82	0xbea0a92c	-0.31379068
83	0xbfc88aea	-1.5667393
84	0xbe997408	-0.29971337
85	0xbf41ffaa	-0.7578074
86	0xbf39dfb5	-0.72606975
87	0xbe37b8fe	-0.17941663
88	0x3feb29e3	1.8372158
89	0xbe014f6c	-0.12627953
90	0x3e10041a	0.14064065
91	0xbea976c1	-0.33098415
92	0x3e1c498e	0.15262434
93	0x402ae6ac	2.670329
94	0xbe581399	-0.21101226
95	0x3ee716e0	0.4513464
96	0x3f09be31	0.53805834
97	0xbdcf7bd2	-0.10131039
98	0x3e311b00	0.17295456
99	0xbfce0df7	-1.6098012
100	0x3d246f65	0.040145297
101	0xbeef7893	-0.46771678
102	0xbed57cc8	-0.41696763
103	0xbf508f59	-0.8146873
104	0xbd8902af	-0.06689965
105	0x3f2421eb	0.64114255
106	0x3de94a5f	0.11391138
107	0x3e44acaa	0.19206491
108	0xbf055fb2	-0.52099144
109	0xbbbe32cc	-0.0058043953
110	0x3f1cbbb7	0.6122393
111	0x3e018b74	0.12650853
112	0xbb01a99d	-0.0019784935
113	0x3fea579f	1.830799
114	0x3e159cec	0.14610642
115	0xbf3b8b88	-0.7325978
116	0xbd5957e0	-0.05306232
117	0x3ed63f42	0.41845137
118	0x3eac27fe	0.33624262
119	0x3edf5fa9	0.4362767
120	0xbeaafb1e	-0.33394712
121	0x3e8d01d5	0.2754046
122	0xbf2d3bed	-0.67669564
123	0xbd990349	-0.0747133
124	0xbf30372b	-0.6883418
125	0xbed50f33	-0.4161316
126	0xbe6c010e	-0.23047277
127	0xbfe78d43	-1.8089985
128	0xbd833c86	-0.06408028
129	0xbf01c1be	-0.5068625
130	0xbf971b6e	-1.1805246
131	0xbde404c9	-0.11133725
132	0x40321f37	2.7831552
133	0xbc334340	-0.010941327
134	0xbe9c6292	-0.30543953
135	0xbe0b3802	-0.13595584
136	0x3bc22940	0.0059253275
137	0x3f8952dd	1.0728413
138	0x3d30bbd0	0.043147862
139	0x40747ffe	3.820312
140	0xbe673791	-0.2257979
141	0x3fa4b64a	1.286813
142	0xbdbbe9e7	-0.09175473
143	0x3e5ffa26	0.21872768
144	0xbe982d84	-0.29722226
145	0x3d8e264a	0.06940897
146	0x3f46780e	0.7752694
147	0x3d84aed4	0.06478658
148	0xbe5f391f	-0.21799134
149	0x3e8fe349	0.28103092
150	0x3dfd472a	0.12367089
151	0xbefb1d29	-0.49045685
152	0x3f0de7d8	0.5543189
153	0x3ea87963	0.3290511
154	0xbf3533b8	-0.7078204
155	0xbe528d6a	-0.20561758
156	0xbec33a60	-0.38130474
157	0xbf313944	-0.69228005
158	0xbd389e48	-0.045072824
159	0xbf4fc733	-0.8116333
160	0xbd283484	-0.041065708
161	0xbf88e0cb	-1.0693601
162	0xbf790ce2	-0.9728528
163	0xbe7a479b	-0.24441378
164	0x3c8b9008	0.017036453
165	0x3f20597e	0.62636554
166	0x3dab0d4c	0.083521456
167	0x3c8c9ab8	0.01716362
168	0xbf7f5c34	-0.99750066
169	0xbe1c0090	-0.1523459
170	0xbf034a5f	-0.51285356
171	0x3b2c12d5	0.0026256342
172	0xbd4b3028	-0.049606472
173	0x3f8b3bba	1.0877602
174	0xbf436f33	-0.7634155
175	0xbf0696df	-0.5257396
176	0x3f83d4fb	1.0299371
177	0xbdc2eab9	-0.09517426
178	0x3e9b4d9d	0.30332652
179	0xbff53aa9	-1.9158527
180	0x3cbb6990	0.022877485
181	0xbef16f9b	-0.4715546
182	0x3e1be740	0.15224934
183	0x3ec3c39d	0.3823518
184	0x3eafd48b	0.34341845
185	0xbee8fb51	-0.4550424
186	0x3e01afab	0.12664668
187	0xbef13e4d	-0.47117844
188	0xbf690dca	-0.91036665
189	0x3e0b7f26	0.13622722
190	0x3e914d80	0.2837944
191	0xbeb26875	-0.3484532
192	0xbd90e8e9	-0.07075674
193	0xbe84b20e	-0.25917095
194	0xbf9e082e	-1.2346246
195	0xbfa2d561	-1.2721368
196	0x3edfb7ae	0.43694824
197	0x3effeadc	0.4998387
198	0xbf8a7c06	-1.0819099
199	0xbb986b20	-0.004651442
200	0x3e52055f	0.20509861
201	0x3eaabac1	0.33345607
202	0xbe2507d6	-0.1611627
203	0x3f1a6e24	0.6032431
204	0xbdfd8985	-0.123797454
205	0x3eb1fc80	0.34762955
206	0xbf8be85b	-1.0930284
207	0x3dccf77e	0.10008143
208	0x3fc1bc8d	1.5135666
209	0x3ef66b3a	0.48128682
210	0x3effba35	0.49946752
211	0x3ebeddb9	0.37278536
212	0xbf20d731	-0.62828356
213	0xbe18adb6	-0.14910015
214	0xbf7289eb	-0.94741696
215	0x3ed8172b	0.42205176
216	0x3ecee35b	0.40407833
217	0x3ed4b5aa	0.4154485
218	0x3f06e2bd	0.52689725
219	0x3e577452	0.21040466
220	0xc0024844	-2.0356607
221	0x3e57f7da	0.21090642
222	0x3e07dd2a	0.13267961
223	0x3fafd04e	1.3735445
224	0xbe3d3236	-0.18476185
225	0xbf22b114	-0.6355145
226	0xbe1b80dd	-0.15185876
227	0x3f8153f1	1.0103742
228	0xbf32342c	-0.6961086
229	0x3eccabc2	0.3997479
230	0xbf916622	-1.1359293
231	0x3ed0d5c8	0.40788102
232	0xbf3ca053	-0.73682135
233	0xbda89a92	-0.08232607
234	0x3dd11bc7	0.10210376
235	0xbeb66057	-0.35620376
236	0x3d66e500	0.056370735
237	0x3f1db461	0.6160336
238	0xbeadfc95	-0.33981767
239	0xbed50b86	-0.41610354
240	0xbe5a6167	-0.21326219
241	0x3e892bdb	0.26791272
242	0xbf8f4e82	-1.1195834
243	0x39b2f200	0.0003413111
244	0xbe3c37f8	-0.18380725
245	0xc039bff3	-2.9023407
246	0x3e1dd6e0	0.15414
247	0xbe71c3d8	-0.23609865
248	0x3b4092c0	0.0029384345
249	0x3fea201c	1.8291049
250	0x3eb2651d	0.34842768
251	0x3f461b5e	0.7738551
252	0x3f7c735c	0.98613524
253	0x3f350df9	0.70724446
254	0x3f011596	0.5042356
255	0x3dd41dff	0.10357284

layer_1.bias f4 [400]
0	0xbed35e87	-0.41283056
1	0xbe022082	-0.12707713
2	0x3e666c51	0.22502257
3	0x3ef71847	0.4826071
4	0x3e6961ca	0.2279121
5	0x3e7a8cf8	0.24467838
6	0xbec790a8	-0.3897755
7	0xbef45f7d	-0.47729102
8	0x3e180fc2	0.14849761
9	0x3ec3b756	0.38225812
10	0x3d819725	0.06327657
11	0xbe57c452	-0.21070984
12	0x3edda6ea	0.43291408
13	0x3e5cf573	0.21578006
14	0xbf0ad358	-0.54228735
15	0x3ebb1548	0.36539674
16	0xbeaa9f8a	-0.33324844
17	0xbd016ef3	-0.03159995
18	0xbe2d6920	-0.16934633
19	0xbf0332c6	-0.5124935
20	0xbe3a7703	-0.18209462
21	0xbd9448d4	-0.07240453
22	0xbe3cbf5f	-0.18432377
23	0x3e05d77c	0.13070482
24	0xbda5e2a6	-0.080998704
25	0xbf4f73bf	-0.8103599
26	0x3e293edd	0.16527887
27	0x3dc9482c	0.09828219
28	0xbeab82a3	-0.33498105
29	0xbf42a439	-0.76031834
30	0xbe0b17e1	-0.13583328
31	0xbdba2ca4	-0.09090546
32	0x3d0672e5	0.032824416
33	0xbecf7035	-0.40515295
34	0x3d500173	0.050782632
35	0xbe3a02d9	-0.18165149
36	0x3daeebe4	0.08541086
37	0xbe9f249f	-0.31082627
38	0xbe797ff1	-0.24365212
39	0x3d34c4b7	0.044132914
40	0xbc01e0b4	-0.007927109
41	0xbdb3fcce	-0.08788453
42	0x3edca782	0.43096548
43	0xbf083b2c	-0.5321529
44	0xbe099f91	-0.13439776
45	0xbed41bf4	-0.41427577
46	0xbea9c553	-0.3315836
47	0xbd040c75	-0.032238442
48	0xbea09b5a	-0.31368524
49	0xbedbde89	-0.42943218
50	0x3d539d3e	0.05166363
51	0xbe500109	-0.20312895
52	0x3ea1d9dd	0.3161153
53	0xbf909e28	-1.1298265
54	0xbe3ab3b0	-0.18232608
55	0xbe998651	-0.29985288
56	0xbe45f5ee	-0.19332096
57	0xbf1e900c	-0.6193855
58	0xbf0ce77d	-0.55040723
59	0xbe6426bd	-0.22280402
60	0xbec0c6b0	-0.37651587
61	0xbdeacc81	-0.11464787
62	0x3e6b4c28	0.2297827
63	0xbee5cfc9	-0.4488509
64	0xbe763f80	-0.24047661
65	0xbf20e002	-0.6284181
66	0x3cfe28af	0.031025259
67	0xbf025816	-0.5091566
68	0xbdd969bc	-0.1061587
69	0xbdc260c4	-0.09491113
70	0xbe6c52c6	-0.2307845
71	0xbe8fb085	-0.2806436
72	0xbe70a654	-0.23500949
73	0xbc8f6aa8	-0.017506912
74	0xbdbb4cd5	-0.09145514
75	0xbedffc02	-0.43746954
76	0xbe96ed2f	-0.29477832
77	0x3d8ba14f	0.068178765
78	0xbf19859c	-0.59969497
79	0xbf06bc81	-0.52631384
80	0xbe711b15	-0.23545487
81	0x3ec99d4a	0.39377815
82	0xbf191a5f	-0.59805864
83	0x3e634e5a	0.22197857
84	0xbe5c5451	-0.21516539
85	0xbe86d201	-0.26332095
86	0x3e913146	0.28357905
87	0xbc10c4ca	-0.008835981
88	0xbe5b8683	-0.21438031
89	0xbf78988e	-0.9710778
90	0xbf3f20ef	-0.7465963
91	0x3ead24dd	0.33817187
92	0x3f09d256	0.5383657
93	0xbe42dc58	-0.19029367
94	0xbdcdc05a	-0.10046454
95	0xbf085495	-0.5325406
96	0xbe5f702a	-0.21820131
97	0x3a8e3018	0.0010848073
98	0xbf1527c2	-0.5826379
99	0xbebd7d95	-0.37009874
100	0xbec1de94	-0.37865126
101	0xbf698444	-0.91217446
102	0x3d5ee69f	0.054419156
103	0xbf2d0dff	-0.6759948
104	0xbefc720c	-0.4930576
105	0xbea507de	-0.32232565
106	0xbd911cf0	-0.070855975
107	0x3e736ee4	0.2377277
108	0xbf1af5d9	-0.60531384
109	0xbefc48f0	-0.49274397
110	0xbf151b1b	-0.58244485
111	0xbbf381f4	-0.007431263
112	0x3e90719d	0.2821168
113	0xbda7b5ae	-0.081889495
114	0xbd4f1dbb	-0.050565463
115	0x3de6d371	0.11270798
116	0xbdbda762	-0.09260441
117	0xbe821de7	-0.2541344
118	0x3f1cd200	0.61257935
119	0x3bd94eee	0.0066317236
120	0xbddd9e2d	-0.10821185
121	0xbe4269cc	-0.18985671
122	0xbf6186a6	-0.8809608
123	0x3e300198	0.17188108
124	0xbe05b609	-0.13057722
125	0xbef75efb	-0.48314652
126	0x3d83126e	0.063999996
127	0x3e94d637	0.29069683
128	0xbf164ba5	-0.58709174
129	0xbf0c8035	-0.5488313
130	0xbed2afe8	-0.4114983
131	0xbedda90e	-0.4329304
132	0xbea1337f	-0.314846
133	0xbeacd6cd	-0.3375763
134	0x3d87a1b9	0.06622643
135	0xbef3b5a5	-0.4759952
136	0xbea02fe5	-0.3128654
137	0xbdf95430	-0.121742606
138	0xbe94bbaf	-0.2904944
139	0xbf091dbe	-0.5356101
140	0x3e3bb514	0.18330795
141	0xbf77ba50	-0.96768665
142	0xbe9d7cf7	-0.30759403
143	0xbf3383dc	-0.70123076
144	0x3d63cff6	0.05561825
145	0x3e49466b	0.19655769
146	0xbec731a6	-0.38905066
147	0xbdd18d95	-0.10232083
148	0xbf03eda8	-0.5153451
149	0xbe9b338f	-0.30312774
150	0xbe650780	-0.22366142
151	0x3e57b449	0.21064867
152	0x3c8a4e1b	0.016882947
153	0xbe23c7a1	-0.15994121
154	0xbdd4a8ae	-0.103837356
155	0xbed5ff98	-0.41796565
156	0xbe12a2a0	-0.14319849
157	0xbf441561	-0.7659512
158	0xbebf3571	-0.3734546
159	0xbf21e1d7	-0.6323523
160	0xbdae259b	-0.085032664
161	0xbf173ab9	-0.5907398
162	0xbe35e207	-0.17762004
163	0xbf1231fb	-0.57107514
164	0xbece74a0	-0.40323353
165	0x3df40ba0	0.1191628
166	0x3da3caeb	0.07997688
167	0x3d59c938	0.053170413
168	0xbe87b3c6	-0.26504344
169	0xbd95fb81	-0.07323361
170	0xbed62c0f	-0.4183049
171	0xbedd464e	-0.432177
172	0xbe904d0b	-0.2818378
173	0xbe8fa81d	-0.28057948
174	0xbf1bd436	-0.60870683
175	0x3e329f30	0.17443538
176	0xbe93fed1	-0.28905347
177	0x3d8c4717	0.06849497
178	0xbe3d7aca	-0.18503872
179	0xbead7bf0	-0.3388362
180	0xbb9c9590	-0.0047785714
181	0xbeb2ef81	-0.34948352
182	0xbe99b684	-0.3002206
183	0xbe47a165	-0.19495161
184	0xbf2d8ae0	-0.6779003
185	0xbe812fac	-0.25231683
186	0xbe780cd6	-0.24223647
187	0xbe6ec579	-0.23317517
188	0xbf6e01c3	-0.9297144
189	0xbc1bdd6f	-0.009513243
190	0x3e298a30	0.1655662
191	0xbee83a17	-0.4535682
192	0xbe8f6fb0	-0.28014898
193	0xbe233444	-0.15937907
194	0xbf19072f	-0.59776586
195	0x3da5b19f	0.08090519
196	0x3f1c4b01	0.61051947
197	0xbeb71a74	-0.3576237
198	0xbeec4902	-0.4614945
199	0xbf25a191	-0.64699656
200	0xbf1f4f6e	-0.62230575
201	0xbe3b92a4	-0.18317658
202	0xbe5ad36d	-0.21369715
203	0xbefaf39a	-0.49013978
204	0xbe87b83b	-0.26507744
205	0xbd896444	-0.06708577
206	0xbead89f3	-0.3389431
207	0xbf063b69	-0.524344
208	0xbf980965	-1.1877867
209	0xbf328ef8	-0.69749403
210	0x3e8bf128	0.27332425
211	0xbd5bf715	-0.053702433
212	0xbe959dca	-0.29221946
213	0xbf55c5b1	-0.8350478
214	0xbf464752	-0.77452576
215	0xbd832578	-0.06403631
216	0xbe5155a6	-0.20442829
217	0xbe36d242	-0.17853644
218	0xbe1efb33	-0.15525512
219	0xbc51fd6f	-0.012816771
220	0xbc6a44a5	-0.014298593
221	0x3d8a8810	0.06764233
222	0xbececf53	-0.4039255
223	0xbee0a5a5	-0.43876377
224	0xbf33ea78	-0.70279646
225	0xbeefd862	-0.46844774
226	0xbe65d6f8	-0.22445285
227	0xbf3c2d2c	-0.73506427
228	0xbe494d85	-0.19658478
229	0xbf0cf49b	-0.5506074
230	0xbe7f6bd5	-0.24943478
231	0xbf00e9e3	-0.5035688
232	0xbec22a4a	-0.3792289
233	0xbf21a51e	-0.63142574
234	0xbefc02e8	-0.49220967
235	0x3e0de46a	0.13856664
236	0xbf11217e	-0.5669173
237	0xbe3e3206	-0.1857377
238	0xbf07d018	-0.530519
239	0x3dfdc0c2	0.12390281
240	0xbf109f4f	-0.56493086
241	0xbf677392	-0.9041072
242	0xbece9834	-0.40350497
243	0xbd64a04f	-0.055816945
244	0x3df4c4ed	0.11951623
245	0xbed75247	-0.4205496
246	0xbe2cb1a6	-0.16864643
247	0xbf21fdc2	-0.6327783
248	0xbf0bc39f	-0.5459537
249	0xbd9c3c67	-0.07628708
250	0xbf24d68b	-0.64389867
251	0xbe4c339d	-0.19941564
252	0xbeb16ed7	-0.34654877
253	0x3eddeb74	0.433437
254	0xbf1190ec	-0.5686176
255	0x3d888469	0.0666588

layer_2.weight f4 [300, 400]
0	0xbde3eca5	-0.11129121
1	0xbd17f061	-0.037094478
2	0xbd093532	-0.033497997
3	0xbd06a9bd	-0.03287672
4	0xbcdc7da6	-0.026915383
5	0x3bcaba6d	0.0061867745
6	0xbd3a2c10	-0.045452178
7	0xbc9d7936	-0.019222837
8	0xbd991ba0	-0.07475972
9	0xbd7ef30e	-0.062243514
10	0xbd8a2380	-0.06745052
11	0xbca000fd	-0.019531721
12	0xbd2abe31	-0.041685287
13	0x3c7a309a	0.015270377
14	0x3c8f688f	0.017505912
15	0xbd305ab4	-0.04305525
16	0xbd309fea	-0.043121256
17	0xbd01403b	-0.031555396
18	0xbd790fa8	-0.060805947
19	0xbc67a258	-0.014137827
20	0xbc38e924	-0.011286054
21	0xbdaac6f2	-0.08338727
22	0xbce1050e	-0.02746823
23	0xbc58b370	-0.013226375
24	0xbd2b8c22	-0.041881688
25	0xbd1117af	-0.035422977
26	0xbdb90f90	-0.090361714
27	0xbd913c0a	-0.0709153
28	0xbda52c19	-0.080650516
29	0xbc72ad14	-0.014811773
30	0x3c3c3ff3	0.011489856
31	0xbd9bc0c8	-0.076051295
32	0xbd8dabce	-0.06917535
33	0xbd9aa19d	-0.075503565
34	0xbc276581	-0.0102170715
35	0xbcc380f5	-0.023865202
36	0xbd9e3923	-0.07725742
37	0xbd5ae8a6	-0.053444527
38	0x3ca5c8ee	0.020237412
39	0xbd3c2d4f	-0.045941647
40	0xbdc5ed67	-0.096644215
41	0xbc9ca190	-0.019120008
42	0x3c99477b	0.018710842
43	0x3c7121c5	0.014717524
44	0xbd00d699	-0.031454656
45	0xbdbc2937	-0.091875486
46	0xbcc31fc7	-0.023818864
47	0x3baea399	0.005329561
48	0xbc85e54a	-0.016344685
49	0xbda05d42	-0.078302875
50	0xbc138181	-0.009003044
51	0xbaa3e7ec	-0.0012505031
52	0xbd978670	-0.07398689
53	0xbda30851	-0.079605706
54	0x3b2b4fe2	0.0026140143
55	0xbbce9aae	-0.0063050603
56	0xbd997a9c	-0.07494089
57	0xbc9acbed	-0.018896068
58	0xbb1378ea	-0.002250249
59	0xbcaa9d50	-0.020826966
60	0xbc31fdef	-0.010863765
61	0xbca1a547	-0.01973213
62	0xbc885de4	-0.016646333
63	0xbb602e0f	-0.003420714
64	0xbda21c46	-0.07915549
65	0xbd0609d3	-0.032724213
66	0xbd31cdde	-0.04340922
67	0xbd32c007	-0.043640163
68	0xbc7f9738	-0.015600018
69	0xbd439ba3	-0.04775585
70	0xbd319cad	-0.04336231
71	0x3c18318b	0.009289156
72	0x3c09e53b	0.008416469
73	0x3ccdab92	0.025106225
74	0xbd0f5d73	-0.03500123
75	0xbd42b963	-0.04754008
76	0xbd03dc0f	-0.032192286
77	0xbd82cb58	-0.06386441
78	0xbc0080fb	-0.007843251
79	0x3b9398d9	0.004504305
80	0xbde7bcc0	-0.11315298
81	0xbd2a6520	-0.041600347
82	0x3b257c57	0.0025251114
83	0xbd0ed5be	-0.03487181
84	0xbd988eda	-0.07449122
85	0xbd719761	-0.058982257
86	0xbd4215ba	-0.047384
87	0xbcf3752b	-0.029718956
88	0xbc0599d8	-0.008154355
89	0xbd273a22	-0.040826924
90	0xbd875045	-0.06607107
91	0xbcd04b92	-0.02542666
92	0xbd0fdf33	-0.03512497
93	0x3b1c832a	0.002388189
94	0xbd27d5c1	-0.040975336
95	0xbce40e14	-0.027838744
96	0xbd25d90a	-0.040490188
97	0xbd56837b	-0.052371483
98	0xbd1b638c	-0.037936732
99	0xbcc6e253	-0.024277842
100	0xbd4d52a3	-0.050127637
101	0xbd100bba	-0.035167433
102	0xbd20f980	-0.03930044
103	0xbda2b20a	-0.079441145
104	0xbc024080	-0.007949948
105	0x3ca8188c	0.020519517
106	0xbcfd9487	-0.030954612
107	0xbd81b25e	-0.06332849
108	0xbc402ebd	-0.011729893
109	0xbda5e149	-0.0809961
110	0xbd03ad51	-0.03214771
111	0x3cb44b16	0.02200846
112	0xbdae4097	-0.08508413
113	0xbc9a5981	-0.018841507
114	0xbd81cc24	-0.06337765
115	0x3c147de7	0.009063221
116	0xbc444f07	-0.011981732
117	0xbcb271f0	-0.021782845
118	0xbda845a2	-0.082164064
119	0xbd83a48c	-0.06427869
120	0xbc312177	-0.010811201
121	0x3c6ab904	0.014326338
122	0xbde8a9a9	-0.11360485
123	0xbcbe3b0c	-0.023221515
124	0xbc660db5	-0.014041354
125	0xbddbd637	-0.107342176
126	0xbd2e8f93	-0.04261739
127	0xbd65f2a4	-0.056139603
128	0xbc989a2b	-0.0186282
129	0xbda9ba48	-0.082874835
130	0xbd4a1f77	-0.049346413
131	0xbbe67e73	-0.007034117
132	0xbbfe81a3	-0.0077669187
133	0xbd5782c2	-0.052614935
134	0x3c7aef97	0.015315912
135	0xbd415437	-0.047199454
136	0xbc200d8e	-0.009768857
137	0xbd117b6b	-0.03551809
138	0xbd524a21	-0.051340226
139	0x3c4633bb	0.012097294
140	0xbd3f61cd	-0.04672413
141	0xbcbf5392	-0.02335528
142	0xbcdf2246	-0.027238023
143	0xbd4b471c	-0.049628362
144	0x3d0f538c	0.034991786
145	0xbd9d52b4	-0.0768179
146	0xbd229e9d	-0.039702047
147	0xbd45c3d9	-0.048282478
148	0xbc5a3c4e	-0.013320042
149	0xbd90f09c	-0.070771426
150	0xbd314bc7	-0.043285158
151	0xbd548d38	-0.05189249
152	0xbca25ee8	-0.019820645
153	0x3c001a3b	0.007818754
154	0xbd7d1a08	-0.061792403
155	0xbcddae8a	-0.027060766
156	0x3c5e4bd0	0.01356788
157	0xbd2feca3	-0.042950284
158	0xbd201c02	-0.03908921
159	0x3cc52bdf	0.02406877
160	0xbd2f0dd2	-0.04273779
161	0xbda14b98	-0.078757465
162	0xbcb94ea3	-0.022620505
163	0x3c8530d9	0.016258644
164	0xbc14ade3	-0.009074661
165	0x3be7ce17	0.0070741284
166	0xbd798dbf	-0.060926195
167	0xbd87d051	-0.0663153
168	0xbd9aa13d	-0.07550285
169	0xbc34d47f	-0.011036991
170	0xbd384bd1	-0.04499418
171	0x3c5c83d6	0.0134591665
172	0xbd3d36a6	-0.046194695
173	0xbb9e832d	-0.0048374147
174	0xba836650	-0.0010024998
175	0xbd2ceb66	-0.04221668
176	0xbd52911f	-0.05140793
177	0xbdcc699a	-0.099810794
178	0xbda47740	-0.08030558
179	0xbdaf82ca	-0.08569868
180	0xbd988fcc	-0.07449302
181	0xbd847c5f	-0.064690344
182	0x35fde937	1.8917843e-06
183	0xbd4a1434	-0.049335673
184	0x384ba3d3	4.8551545e-05
185	0xbd3f5c62	-0.046718962
186	0xbd917239	-0.07101864
187	0xbc7a735c	-0.015286293
188	0xbdc70757	-0.09718197
189	0xbd15526c	-0.036455557
190	0x3c8dfa7a	0.01733135
191	0xbc42a5e8	-0.011880375
192	0xbcc17148	-0.023613587
193	0xbb9ac8a4	-0.0047236253
194	0xbcb3c59a	-0.02194481
195	0xbce7bbce	-0.028287794
196	0xbd45cfc3	-0.04829384
197	0xbd32ef16	-0.04368504
198	0xbd518d58	-0.051160187
199	0x3c83b56d	0.016077721
200	0xbcd098bb	-0.025463453
201	0x39e404df	0.00043491178
202	0x3be8d455	0.00710539
203	0x3c1c77c9	0.009550043
204	0xbcb6cbb5	-0.022313932
205	0xbd0c9295	-0.03431948
206	0xbd62a513	-0.05533321
207	0xb8ff8fa9	-0.00012186106
208	0x3b821ff0	0.0039710924
209	0x3bd7e52c	0.0065885987
210	0xbd9c96b8	-0.07645935
211	0xbdac7088	-0.08419901
212	0xbd86bfff	-0.06579589
213	0xbd8232fa	-0.06357379
214	0xbe01cf2b	-0.12676685
215	0xbc9d3409	-0.019189851
216	0x3c5c0955	0.013429959
217	0xbbe72b33	-0.0070547103
218	0xbd886093	-0.06659045
219	0xbcfa5141	-0.030556323
220	0xbc845149	-0.016152041
221	0xbbe7ea8e	-0.0070775216
222	0x3d128c84	0.035778537
223	0xbd6f7e35	-0.05846997
224	0xbd55bc56	-0.052181564
225	0xbb7c9d14	-0.0038545774
226	0xbcba7b73	-0.022763943
227	0xbd5ab459	-0.05339465
228	0xbd86ec38	-0.06588024
229	0xbd0e6fec	-0.034774706
230	0x3c1c5e87	0.009544021
231	0xbd5316d5	-0.051535446
232	0xbd1be476	-0.038059674
233	0xbc501c36	-0.0127020385
234	0xbd951081	-0.072785385
235	0xbd68f820	-0.056877255
236	0xbccd90b0	-0.025093406
237	0xbd72947b	-0.059223633
238	0x3b8777d6	0.0041341586
239	0xbd39c877	-0.045357194
240	0xbc381f8e	-0.011237992
241	0xbd4f4f54	-0.050612763
242	0x3be0c185	0.006859007
243	0x3c0ea6ed	0.00870679
244	0xbd958661	-0.07301021
245	0xbd78079c	-0.060554132
246	0xbd4d0865	-0.050056834
247	0xbcb378d4	-0.021908201
248	0xbd37cf06	-0.044875167
249	0xbc60f1de	-0.013729541
250	0xbd6584c7	-0.05603483
251	0xbc3e4a81	-0.011614443
252	0xbda5ae59	-0.08089895
253	0xbcf6e892	-0.030140195
254	0xbc0d9e33	-0.008643675
255	0xbcecb501	-0.028894903

layer_2.bias f4 [300]
0	0xbc30f6c2	-0.010801019
1	0xbd6907b8	-0.056892127
2	0xbdddfddb	-0.10839435
3	0xbcb6c9b8	-0.022312984
4	0xbd92eeb6	-0.07174437
5	0xbd8ef094	-0.069794804
6	0xbc8eec7d	-0.01744675
7	0xbe4a7c53	-0.19773988
8	0xbe919cf4	-0.28440058
9	0xbd081a67	-0.033228304
10	0xbde59b4e	-0.11211263
11	0xbdf57495	-0.11985127
12	0xbdd00096	-0.10156362
13	0xbd536333	-0.051608276
14	0xbd8e10df	-0.06936812
15	0xbd6c38bd	-0.057671297
16	0xbdc962f4	-0.09833327
17	0x3ec8eefe	0.39244837
18	0xbf2d744a	-0.6775557
19	0xbc8ae69c	-0.016955666
20	0x3e836aa6	0.25667304
21	0xbc4bc70c	-0.012437593
22	0xbcfa276e	-0.03053638
23	0x3e8748c3	0.264227
24	0x3eb90b65	0.36141506
25	0xbe4b79ef	-0.19870733
26	0x3e3db62f	0.18526529
27	0xbd0183c4	-0.031619802
28	0xbd96c141	-0.07361079
29	0xbd09da18	-0.033655256
30	0xbd1bd918	-0.038048834
31	0x3c9a5723	0.018840378
32	0xbc9a140a	-0.018808383
33	0xbea83ec5	-0.3286039
34	0xbd919dbb	-0.07110163
35	0x3c963258	0.018334553
36	0x3dcffa1b	0.10155126
37	0xbd10e482	-0.035374172
38	0xbf4cca5a	-0.79996264
39	0xbe34a31d	-0.17640348
40	0x3e102c0f	0.14079307
41	0xbd976aac	-0.07393393
42	0x3b0cf3d9	0.002150765
43	0xbd45f6c8	-0.048331052
44	0xbc67cedd	-0.014148441
45	0xbd609385	-0.054828186
46	0xbfaf477c	-1.369369
47	0x3eb844cb	0.35989985
48	0xbd33ffc1	-0.043945078
49	0x3f961c31	1.1727353
50	0x3e80c15b	0.2514752
51	0xbf4af0c6	-0.7927364
52	0xbd1276b1	-0.035757724
53	0xbb974c07	-0.0046172175
54	0xbc1ed73b	-0.00969487
55	0x3e8409ea	0.25788814
56	0xbf8db349	-1.1070338
57	0x3d1003e6	0.035159968
58	0xbd930b39	-0.07179875
59	0xbf1202e3	-0.57035655
60	0xbe508ffa	-0.20367423
61	0x3e10a103	0.14123921
62	0xbbf8ae2f	-0.0075891237
63	0x3e378585	0.17922027
64	0xbdd50f61	-0.10403324
65	0xbf74da74	-0.95645833
66	0xbdbb7d38	-0.09154743
67	0xbc829198	-0.015938565
68	0xbd3d2458	-0.04617724
69	0xbd6d2e1d	-0.057905305
70	0xbd5c009b	-0.053711515
71	0x3c195fb2	0.009361194
72	0xbd848d6f	-0.06472289
73	0xbc2294c0	-0.00992316
74	0xbda3dd98	-0.0800125
75	0x3e4fe3cb	0.2030174
76	0xbd9f4d8e	-0.07778464
77	0xbd6e241f	-0.058139917
78	0x3cc94955	0.0245711
79	0xbd9ccf14	-0.076566845
80	0xbbd22d58	-0.006414097
81	0xbe7ad782	-0.24496272
82	0xbdf353ba	-0.11881204
83	0xbea64b1b	-0.32479176
84	0xbb04f0b9	-0.0020285083
85	0x3d1db71a	0.038504697
86	0xbb4c2c6f	-0.0031154414
87	0xbd118ad9	-0.035532806
88	0xbcc45df1	-0.023970576
89	0xbd65f032	-0.05613727
90	0xbd0479a9	-0.032342587
91	0x3a839e8c	0.0010041757
92	0x3f42fc0b	0.7616584
93	0xbcffc80d	-0.031223321
94	0x3a414428	0.0007372522
95	0x3c9e6c68	0.019338802
96	0x3b55019c	0.003250218
97	0xbc9ee3d9	-0.019395756
98	0xbcb96650	-0.022631794
99	0x3a11d163	0.0005562512
100	0x38ca6396	9.65066e-05
101	0xbdcd6bc9	-0.10030324
102	0xbf1be1e4	-0.60891557
103	0xbe5e7231	-0.21723248
104	0xbd27c292	-0.04095704
105	0xbce5c718	-0.028049037
106	0xbd8bb835	-0.06822244
107	0x3ac351bd	0.0014901679
108	0xbe9b2ad0	-0.303061
109	0xbf427de1	-0.75973326
110	0xbd4bf822	-0.049797185
111	0xbd404e4d	-0.046949673
112	0xbc781552	-0.015141802
113	0xbf56309d	-0.8366793
114	0xbdb8bdd2	-0.0902058
115	0xbeef2fde	-0.46716207
116	0xbd5b9845	-0.053612012
117	0xbf18d5e1	-0.59701353
118	0xbd9699e4	-0.07353571
119	0xbe1acbfc	-0.15116876
120	0xbc7b88ac	-0.015352409
121	0xbdbb625c	-0.0914962
122	0xbc81a4e2	-0.015825693
123	0xbdab3807	-0.08360296
124	0x3f1f86b9	0.62314945
125	0xbdeeab52	-0.116537705
126	0xbcaad52a	-0.020853598
127	0xbbb57643	-0.0055377795
128	0xbebb585f	-0.3659086
129	0xbd55bce9	-0.052182112
130	0xbdac4085	-0.084107436
131	0xbfbad8cf	-1.4597415
132	0xbc0fe1f1	-0.008781896
133	0xbd278fc8	-0.040908605
134	0xbbcdbee1	-0.006278858
135	0xbdc3379b	-0.0953209
136	0xbdc6544f	-0.09684049
137	0xbd735867	-0.05941048
138	0xbdb264ba	-0.08710618
139	0xbdc01626	-0.093792245
140	0xbabd95d7	-0.0014464211
141	0xbd481500	-0.048848152
142	0x3edb4516	0.42826146
143	0xbe2d8873	-0.16946582
144	0xbd43bd6e	-0.047788076
145	0xbf23b8fe	-0.6395415
146	0xbd3ca60e	-0.0460568
147	0xbd69f26d	-0.05711596
148	0x3f0a0d7c	0.53926826
149	0xbfb172ed	-1.3863198
150	0xbd9418e1	-0.07231308
151	0x3f2f0407	0.6836552
152	0xbf0dfaf5	-0.55461055
153	0xbf4a3efc	-0.79002357
154	0xbcef8337	-0.029237373
155	0x3e1b2bf9	0.15153493
156	0xbd5b2657	-0.05350336
157	0xbd63689a	-0.055519678
158	0xbeb16f72	-0.3465534
159	0xbd76c322	-0.060244687
160	0xbd96b3d5	-0.07358519
161	0xbdf7967c	-0.120892495
162	0xbd7d6f41	-0.061873678
163	0x3eb217d7	0.34783813
164	0xbc89a9c8	-0.01680459
165	0xbdc548f4	-0.09633055
166	0xbfd34ec8	-1.6508417
167	0xbd2949d4	-0.041330174
168	0xbdae139a	-0.084998325
169	0xbd35320d	-0.044237185
170	0xbf1f17ad	-0.621455
171	0xbf6ef29c	-0.9333894
172	0xbdb02738	-0.086012304
173	0xbef4952f	-0.47770068
174	0xbf924059	-1.1425887
175	0xbe4f4bbe	-0.20243737
176	0xbd9ef27e	-0.077610955
177	0x3f0979e2	0.53701603
178	0xbd89d86d	-0.06730733
179	0xbdbd1250	-0.092320085
180	0xbd1c5849	-0.038170133
181	0xbe564b66	-0.209272
182	0xbd3ce6b6	-0.04611846
183	0x3ec6d57d	0.38834754
184	0x3b7ed05b	0.0038881514
185	0xbc229bd6	-0.0099248495
186	0x3ca78eb6	0.020453792
187	0xbe1067fd	-0.14102168
188	0x3a348072	0.0006885595
189	0xbd8a9cb4	-0.0676817
190	0xbcc9ee20	-0.02464968
191	0xbc82bc84	-0.015959032
192	0xbcb47896	-0.022030156
193	0xbd5713d2	-0.052509136
194	0xbd6f499f	-0.05841982
195	0xbe9513e3	-0.29116735
196	0xbda8aeda	-0.08236475
197	0xbd993d9c	-0.07482454
198	0xbf1f8b6c	-0.62322116
199	0xbd27e487	-0.040989425
200	0x3c89ea45	0.016835341
201	0xbd18f32e	-0.03734129
202	0xbdbf628c	-0.09344968
203	0xbd37a184	-0.044831768
204	0x3b6e543e	0.003636613
205	0xbdad4c41	-0.0846181
206	0xbf9a31b6	-1.204642
207	0x3b624df3	0.0034531325
208	0xbd278648	-0.040899545
209	0x3f002864	0.5006163
210	0xbc292542	-0.010323824
211	0xbd6e8091	-0.05822808
212	0xbabd9f27	-0.0014466987
213	0xbd78e34c	-0.060763642
214	0xbef3362f	-0.47502276
215	0xbd30beb4	-0.04315062
216	0xbeea3263	-0.45741567
217	0xbda9cd40	-0.082911015
218	0xbd8737a1	-0.06602407
219	0xbf0fbfc7	-0.56152004
220	0xbc25af29	-0.010112562
221	0xbec0868e	-0.37602657
222	0xbfae6443	-1.3624347
223	0xbce17298	-0.027520463
224	0xbcc8a700	-0.024493694
225	0xbb7d306b	-0.0038633596
226	0xbe019d8c	-0.12657756
227	0x3c12ea1a	0.008966947
228	0xbcee1f2f	-0.029067604
229	0xbdaee0a2	-0.08538939
230	0xbb9f50f3	-0.004861945
231	0xbd7dc870	-0.06195873
232	0xbef04787	-0.4692957
233	0x3e9f8d23	0.31162366
234	0xbdb45ab2	-0.08806361
235	0xbdead43c	-0.11466262
236	0xbf51744c	-0.8181808
237	0xbcbd294b	-0.02309098
238	0xbd2ddab6	-0.042444907
239	0x3c1eca3d	0.009691772
240	0xbdc1f572	-0.09470643
241	0xbc9ebbd4	-0.019376673
242	0x3df416ac	0.11918387
243	0xbde71870	-0.11283958
244	0xbf4b7ca8	-0.79487085
245	0xbd4ad955	-0.04952367
246	0xbf6c72a0	-0.92362404
247	0xbcf1994d	-0.029492045
248	0xbda0d500	-0.078531265
249	0x3e0997c3	0.13436799
250	0xbcf9b019	-0.030479478
251	0xbd95ef35	-0.07321016
252	0xbb71d7ae	-0.0036902237
253	0xbd2815a6	-0.04103627
254	0xbd50fa8f	-0.0510202
255	0x3da9d454	0.082924515

layer_3.weight f4 [6, 300]
0	0xbce75999	-0.028240966
1	0x3fc1cb63	1.5140194
2	0xbfc25948	-1.5183496
3	0x3d44eaa8	0.04807535
4	0x3d0665b2	0.032811828
5	0x39529539	0.0002008275
6	0x3c898d97	0.016791148
7	0x3e3a22d9	0.18177356
8	0x3fb36b77	1.4017171
9	0xbb31d37e	-0.0027134116
10	0x3cce7e1e	0.025206622
11	0x3d9920a8	0.07476932
12	0xbcd53d58	-0.026030228
13	0x3e345668	0.17611086
14	0x3d2d89cd	0.042367745
15	0x3d5f96bd	0.054587115
16	0x3dbcc401	0.09217072
17	0x3eacb8c5	0.33734718
18	0xc0066bd1	-2.1003306
19	0xbc1570b6	-0.009121111
20	0x3fb2defa	1.3974297
21	0x3c1278df	0.008939951
22	0x3d837705	0.064191855
23	0xbf3b3c41	-0.73138815
24	0x3e37b8a8	0.17941535
25	0xbe9de1f8	-0.30836463
26	0xbfb724f2	-1.430815
27	0xbd094602	-0.03351403
28	0x3da41b8d	0.080130674
29	0xbcc421c3	-0.02394188
30	0xbcd1a538	-0.025591478
31	0x3dde0330	0.10840452
32	0xbcbe25de	-0.023211416
33	0x3d17d2a2	0.03706611
34	0xbbf53faf	-0.0074843983
35	0x3d7cafa8	0.061690956
36	0x3ece2669	0.4026368
37	0x3c688be4	0.014193509
38	0xbe8284d2	-0.2549196
39	0xbc8c19d6	-0.017102163
40	0xbde5e36c	-0.11225018
41	0x3cced79f	0.0252493
42	0x3c913027	0.017723156
43	0x3d489bc8	0.04897669
44	0x3c2f9113	0.010715741
45	0x3db36342	0.08759166
46	0x3db26639	0.08710904
47	0xbe4d8d64	-0.20073467
48	0x3c21c46e	0.009873493
49	0xbdc91522	-0.09818484
50	0x3e15d393	0.1463149
51	0xbe0ccce5	-0.13750036
52	0x3d899867	0.067185216
53	0x3c3f8e3a	0.011691624
54	0xbb7427e7	-0.003725523
55	0x3d54bd12	0.051938124
56	0xbfc0aabf	-1.5052108
57	0xbf04a94f	-0.51820844
58	0xbd9cf206	-0.0766335
59	0xbe1e2f2d	-0.15447684
60	0x3f0674ba	0.5252186
61	0xbc8aa21b	-0.016923001
62	0x3d8614e2	0.06546952
63	0x3f1252c2	0.5715753
64	0x3d8abf1b	0.06774732
65	0xbef6d328	-0.48207974
66	0xbcd6c7cf	-0.026218323
67	0x3fcc600d	1.5966812
68	0x3c97984f	0.018505244
69	0x3d9fafe3	0.077972196
70	0x3d6581cd	0.05603199
71	0x3cb4fcd0	0.022093207
72	0xbd006e92	-0.031355448
73	0x3d30950c	0.043110892
74	0xbbc89ff9	-0.006122586
75	0x3f973c89	1.1815349
76	0xbc853bed	-0.016263926
77	0x3f03a368	0.51421213
78	0x3fbfd035	1.4985415
79	0xbd1bdfe7	-0.038055327
80	0xbd94d4fa	-0.072671846
81	0xbe1c0f99	-0.15240325
82	0xbcd11c1e	-0.025526103
83	0xc03d3309	-2.95624
84	0x3d842c74	0.06453791
85	0xbd2e8b4c	-0.042613313
86	0x3c388572	0.011262285
87	0x3d8e23d8	0.069404304
88	0x3d7dee3b	0.061994772
89	0x3cacd53b	0.02109777
90	0x3ce9d667	0.028544618
91	0x3ca76849	0.02043547
92	0xbdfe8fe8	-0.12429792
93	0xbd66dd43	-0.056363355
94	0x3d9b2f67	0.07577401
95	0x3ddf79f3	0.10911932
96	0xbc4bb47b	-0.012433167
97	0xba98fe4b	-0.0011672465
98	0xbd0e7cf7	-0.034787145
99	0xbdebb04b	-0.115082346
100	0xbe4bfca0	-0.19920588
101	0x3d058ca8	0.032604843
102	0xbff8feb4	-1.9452729
103	0xbbd32daa	-0.0064446526
104	0xbb4426bd	-0.0029930316
105	0x3b03093d	0.001999452
106	0x3c46f02a	0.0121422205
107	0x3be661ec	0.007030716
108	0x3f013349	0.5046888
109	0xbfaa8fe0	-1.3325157
110	0xbd0705e3	-0.0329646
111	0x3d3632b1	0.044481937
112	0x3cfde078	0.030990824
113	0xbe608756	-0.21926627
114	0xbc880c11	-0.016607316
115	0xbf91335b	-1.1343797
116	0x3bb70a70	0.005585961
117	0xbffea0a8	-1.9892778
118	0xbdaded4c	-0.084925264
119	0x3faf31ab	1.3687032
120	0xbcc74dda	-0.024329115
121	0x3d270519	0.040776346
122	0x3d566e98	0.052351564
123	0x3c8227e3	0.01588816
124	0xbe7b2597	-0.24526058
125	0xbc013df9	-0.007888311
126	0x3d710c82	0.05884982
127	0x3d1af8d2	0.03783495
128	0x3ec3252a	0.3811429
129	0xbca015ec	-0.019541703
130	0x3d4df5e9	0.050283346
131	0xbd927381	-0.07150937
132	0x3ded749b	0.11594506
133	0x3d11eb22	0.03562463
134	0xbc95dee8	-0.018294767
135	0x3f067bc5	0.5253261
136	0xbd329246	-0.04359653
137	0xbccc8ca4	-0.024969406
138	0x3acfaede	0.0015844961
139	0xbd9eac35	-0.0774769
140	0x3cc3aa36	0.023884874
141	0x3c138916	0.009004852
142	0x3ea800fb	0.32813248
143	0xbf035e0c	-0.5131538
144	0x3cfbcbba	0.030736793
145	0xbe54cd70	-0.20781493
146	0xbd14e76f	-0.036353525
147	0xbc9016fc	-0.017589085
148	0x400b8cf2	2.1804776
149	0xbfedd8cd	-1.8581787
150	0x3d20dbf4	0.039272264
151	0xbfad13f1	-1.3521711
152	0x3da77a01	0.08177567
153	0x3d067a20	0.03283131
154	0xbc08d0a0	-0.008350521
155	0xbc3141eb	-0.010818939
156	0x3d9be5c1	0.076121815
157	0x3d9868b5	0.07441846
158	0xbf3041ee	-0.688506
159	0x3afc251e	0.0019237136
160	0x3d757dd0	0.059934437
161	0x3c90f674	0.017695643
162	0xbcc13105	-0.023582945
163	0x3bdefa30	0.006804727
164	0x3d1fc4c5	0.039006013
165	0x3d70707f	0.058701035
166	0x3db0516c	0.0860928
167	0x3cce9969	0.025219636
168	0x3d322f6e	0.043502264
169	0xbcdd69d6	-0.027028006
170	0xbf0b9408	-0.5452275
171	0xbf6a37ce	-0.914914
172	0xbd7b39ef	-0.061334547
173	0x3ef5af49	0.47985294
174	0xbb9bb80e	-0.0047521656
175	0xbe6f8443	-0.23390298
176	0x3dfa80df	0.122316115
177	0x3d6ce54d	0.057835866
178	0x3d0bcf79	0.03413341
179	0x3d37023a	0.044679858
180	0xbc2331b1	-0.009960578
181	0xbf8c9f95	-1.09862
182	0xbc9641c9	-0.018341916
183	0xbe177ef4	-0.14794523
184	0x3c405602	0.011739256
185	0x3fa652d9	1.2994033
186	0x3be2c558	0.006920498
187	0xbc2a3874	-0.010389436
188	0x3d8b3a34	0.06798211
189	0xbd8ac0e0	-0.06775069
190	0x3cc607e2	0.02417368
191	0x3d8fc39c	0.070197314
192	0x3c80c47b	0.01571869
193	0xbbfd0c29	-0.007722397
194	0x3c18ac17	0.009318373
195	0x3ee6ee6d	0.4510378
196	0xbc90730c	-0.017632984
197	0x3d716ce8	0.05894175
198	0xbda3f093	-0.0800487
199	0x3d8de672	0.069287196
200	0xbbaef352	-0.0053390646
201	0xbd7a9f13	-0.06118686
202	0xbc6ef1f8	-0.014584057
203	0xbc5662ba	-0.013085062
204	0x3da2db36	0.079519674
205	0xbc23afe9	-0.009990671
206	0xbd95beb4	-0.07311764
207	0x3caf1ed0	0.021376997
208	0x3d2b0bd1	0.041759316
209	0x3e71b218	0.23603094
210	0xbb0f2c63	-0.0021846525
211	0x3d9b5153	0.07583871
212	0x3d7358b7	0.059410777
213	0xbccf472a	-0.025302488
214	0x3dc1cbd5	0.09462706
215	0x3d93c723	0.07215717
216	0xbec54ccd	-0.38535157
217	0xbd42823e	-0.04748749
218	0xbd49ee04	-0.049299255
219	0xbc8c8ba3	-0.017156428
220	0xbca7cdaa	-0.02048381
221	0x3f8afc42	1.0858233
222	0x3d144fee	0.03620904
223	0x3cb70b3e	0.022344228
224	0x3d062e40	0.03275895
225	0x3cdb5593	0.026774203
226	0xbd242fd7	-0.040084686
227	0xbb64c300	-0.0034906268
228	0x3cfa1e99	0.030532168
229	0xbc6d0b04	-0.014467958
230	0x3d28d017	0.041214075
231	0xbd329411	-0.04359824
232	0x3f5e73cc	0.8689544
233	0x40025298	2.0362911
234	0x3bfb5bdd	0.007670863
235	0xbb439934	-0.0029845955
236	0x3f5be7dd	0.8590067
237	0x3c85738f	0.016290454
238	0x3d4ab733	0.04949112
239	0x3ca4c3f6	0.020112973
240	0xbc8d5346	-0.017251622
241	0x3f14dd70	0.58150387
242	0x3cc648c9	0.024204629
243	0x3d04fd4f	0.032468136
244	0xbf9846d1	-1.1896611
245	0xbb290574	-0.0025790604
246	0x3ee20475	0.44144025
247	0x3c9a7f14	0.018859424
248	0x3cc2bafa	0.023770798
249	0xbdf82ae4	-0.12117556
250	0x3bcc220e	0.0062296456
251	0xbc5261d8	-0.012840711
252	0x3d98b87e	0.07457064
253	0xbd0e2dd3	-0.03471167
254	0x3ccaf788	0.024776235
255	0x3e31a4e4	0.17348057

layer_3.bias f4 [6]
0	0x3e746983	0.23868375
1	0x3f23120f	0.6369943
2	0x3f555c43	0.83343905
3	0x3e0b0c20	0.13578844
4	0x3e18c16b	0.14917533
5	0xbdffb8f8	-0.12486452
